policies/policy2.pth (torch, 86280 bytes, 6 tensors)

weight f4 [128, 28]
0	0xbd99dd34	-0.07512894
1	0x3d5b569f	0.053549405
2	0xbe00ab61	-0.12565376
3	0x3d65339f	0.055957433
4	0xbb3bcee9	-0.0028657264
5	0xbd55b1f3	-0.05217166
6	0x3da23b4a	0.07921465
7	0x3c96e965	0.018421838
8	0xbda0e7b4	-0.07856694
9	0xbd650d78	-0.055921048
10	0x3da3f75c	0.080061644
11	0xbda9095e	-0.0825374
12	0xbdfe1c6c	-0.12407765
13	0x3c55fc73	0.013060677
14	0xbcdfe1b6	-0.027329307
15	0x3cc091ec	0.023507081
16	0xbc06283f	-0.008188306
17	0x3d097be4	0.033565417
18	0xbd65ebd2	-0.0561331
19	0x3d8d8ba7	0.06911402
20	0xbe10b976	-0.14133248
21	0xbdfd9ed1	-0.123838075
22	0x3d381994	0.04494627
23	0x3cab5f4b	0.020919463
24	0x3cd94fec	0.026527368
25	0xbdca6172	-0.098818675
26	0xbdd3a319	-0.10333843
27	0x3da8f07a	0.08248992
28	0xbe045917	-0.1292461
29	0xbc696d89	-0.014247307
30	0xbd92cea0	-0.07168317
31	0xbe18f60d	-0.14937611
32	0x3bd5c5be	0.006523817
33	0xbdae6bbe	-0.08516644
34	0x3b8fc319	0.004387271
35	0xbd1c9a58	-0.03823313
36	0x3be20f9b	0.006898833
37	0xbd79b487	-0.06096318
38	0xbdcbecc0	-0.09957266
39	0x3d8e70e3	0.06955125
40	0xbd9bc137	-0.07605212
41	0x3db125fe	0.086498246
42	0xbd4d118e	-0.05006557
43	0xbd331fdc	-0.043731555
44	0xbc051307	-0.008122212
45	0xbb214294	-0.0024606334
46	0x3d1e4b7d	0.03864621
47	0xbd7eede1	-0.062238578
48	0xbde87e2e	-0.11352192
49	0x3d4d7ac3	0.050165903
50	0x3d818b5b	0.06325408
51	0x3d93a1dc	0.072086066
52	0x3d12895b	0.035775524
53	0xbd197785	-0.0374675
54	0x3cd9a345	0.02656711
55	0xbe18cbff	-0.14921568
56	0x3d88f920	0.06688142
57	0x3ca908c8	0.02063407
58	0x3d25ac07	0.04044726
59	0xbe0442dd	-0.12916131
60	0xbd9b5bae	-0.07585846
61	0x3d0ac05f	0.033874866
62	0x3c5818b8	0.013189487
63	0x3cc9a336	0.024613958
64	0xbe134f69	-0.14385761
65	0x3c95ee77	0.018302185
66	0xbd18d06d	-0.037308145
67	0xbe071e84	-0.13195235
68	0x3cd73057	0.026268167
69	0xbda482ff	-0.08032798
70	0xbdac1191	-0.08401788
71	0xbd7e41c9	-0.062074456
72	0xbd989397	-0.074500255
73	0xbdf4817f	-0.11938762
74	0x3d01f014	0.031723097
75	0xbdd2d0f6	-0.102937624
76	0x3d4fa616	0.0506955
77	0x3cba2bb4	0.022725917
78	0x3d59c669	0.053167734
79	0xbccbb79d	-0.024867827
80	0xbd65ec54	-0.056133583
81	0xbd39f466	-0.045399092
82	0x3d9a1f08	0.0752545
83	0xbdc37a50	-0.09544814
84	0xbd90263e	-0.07038544
85	0xbd6e8800	-0.05823517
86	0xbd61af4d	-0.05509882
87	0xbd04d6fc	-0.032431588
88	0xbd7ab4a9	-0.061207447
89	0xbdafaa13	-0.08577361
90	0xbe0488bc	-0.12942785
91	0xbdbc4598	-0.091929615
92	0x3d121f28	0.035674244
93	0xbc90b08a	-0.017662305
94	0x3d8336e0	0.06406951
95	0x3d9c75b9	0.07639641
96	0xbd96165c	-0.073284835
97	0xbd78c964	-0.060738936
98	0x3d6bdce1	0.057583693
99	0xbc87ee28	-0.016593054
100	0x3d86e728	0.06587058
101	0xbdf7d39e	-0.1210091
102	0xbe07e557	-0.1327108
103	0xbc96f2d3	-0.018426334
104	0x3d0f9c76	0.035061322
105	0xbd041eeb	-0.03225605
106	0x3dca31b5	0.09872762
107	0x3dd29f92	0.10284342
108	0xbdbca16b	-0.092104755
109	0xbd8fbc90	-0.07018387
110	0xbdb38f6f	-0.08767592
111	0xbd80f2c9	-0.062963076
112	0xbd7b0dcf	-0.061292466
113	0xbc4645ff	-0.012101649
114	0xbc9a12dd	-0.018807823
115	0x3c1cb0ad	0.009563607
116	0xbb688e68	-0.0035485271
117	0x3e20853a	0.15675822
118	0xbd86dc41	-0.06584979
119	0xbcaaf7fe	-0.020870205
120	0x3d63be28	0.05560127
121	0x3d926898	0.07148856
122	0x3df201d6	0.118167564
123	0xbbaaf647	-0.005217347
124	0x3c94a1f0	0.018143624
125	0xbe4664da	-0.1937441
126	0xbd4ab277	-0.049486604
127	0x3d2fc77c	0.042914852
128	0xbcb4234a	-0.021989483
129	0x3d8321d7	0.06402939
130	0x3d94a010	0.07257092
131	0xbd87fbbe	-0.06639813
132	0x3de9a006	0.11407475
133	0xbd50cb7b	-0.050975304
134	0xbde79e8b	-0.113095365
135	0x3cf1c4c3	0.029512769
136	0xbd4fa82c	-0.05069749
137	0xbd95b3ef	-0.0730971
138	0x3ce5516d	0.027992928
139	0x3db7d84b	0.089768015
140	0xbd584152	-0.05279667
141	0xbc964c83	-0.01834703
142	0xbe0383e3	-0.1284328
143	0x3d34bda3	0.044126164
144	0xbcff07e3	-0.03113169
145	0xbd9d93bc	-0.07694194
146	0xbd256411	-0.040378634
147	0x3d9fe609	0.078075476
148	0x3c1aaacc	0.009440135
149	0xbd428d65	-0.047498126
150	0x3e0a36aa	0.13497415
151	0xbe14293b	-0.14468853
152	0x3dbfb837	0.09361308
153	0x3d52bd73	0.051450204
154	0x3ca981df	0.02069181
155	0xbe062b83	-0.13102536
156	0x3d18aedd	0.037276138
157	0xbdee46c5	-0.11634592
158	0x3d799e3c	0.06094192
159	0xbda4717b	-0.08029457
160	0x3d129354	0.035785034
161	0x3d364850	0.044502556
162	0xbe107406	-0.1410676
163	0xbc470f1d	-0.012149599
164	0x3c4fba9b	0.012678768
165	0x3c73476f	0.014848574
166	0x3d5cdc25	0.053920884
167	0xbcd71a89	-0.02625777
168	0xbd3dddfb	-0.046354275
169	0xbb49dd57	-0.0030802095
170	0xbc024b7d	-0.007952568
171	0xbcc9d28d	-0.024636531
172	0x3db404d3	0.08789983
173	0x3df2e4d5	0.118600525
174	0xbb2bbb0d	-0.002620402
175	0xbd29eeda	-0.041487552
176	0x3d93c075	0.07214443
177	0x3d9282e9	0.071538754
178	0x3d60f525	0.054921288
179	0xbdf88c22	-0.12136103
180	0xbdbba9e0	-0.091632605
181	0xbdcdd97f	-0.1005125
182	0x3cbe6e4b	0.023245951
183	0xbc102f35	-0.0088003175
184	0xbddf5ce9	-0.10906393
185	0x3d68fd7e	0.056882374
186	0xbdcc9730	-0.09989774
187	0xbd055436	-0.032551013
188	0x3d5172f4	0.05113502
189	0xbdf2e68f	-0.11860382
190	0xbe108cf6	-0.14116272
191	0x3d873858	0.066025436
192	0x3d1e7ee8	0.038695246
193	0xbd1ce8fb	-0.038308125
194	0xbc9e35a0	-0.01931268
195	0xbd57ab8f	-0.052653845
196	0xbdb8e67b	-0.09028336
197	0x3d4e1ee3	0.050322425
198	0x3da7554d	0.08170567
199	0xbdd66974	-0.10469332
200	0x3d857e80	0.065182686
201	0x3d51d759	0.051230762
202	0xbdfff1e6	-0.1249731
203	0xbe0fd94c	-0.14047736
204	0xbd4fc5e4	-0.050725833
205	0xbd3ff181	-0.046861175
206	0xbd6a6131	-0.057221595
207	0x3cdccb25	0.026952336
208	0xbdfecbd9	-0.124412246
209	0xbde42b4b	-0.1114107
210	0x3db0fe27	0.08642226
211	0xbda31cff	-0.07964515
212	0x3dd105b5	0.10206167
213	0xbbe3f873	-0.0069571077
214	0xbcfebd9b	-0.03109627
215	0x3d0de87a	0.034645535
216	0xbd24da29	-0.040247116
217	0x3d1a00e8	0.03759852
218	0xbcdf0949	-0.027226107
219	0xbd50013f	-0.05078244
220	0x3d43777c	0.04772137
221	0x3d81ddc2	0.06341125
222	0xbde28761	-0.11060978
223	0xbc126216	-0.008934518
224	0xbdc30e62	-0.09524228
225	0xbdb8da3b	-0.09025999
226	0x3af53961	0.0018709117
227	0xbdc84071	-0.09777916
228	0x3d3063bf	0.043063875
229	0x3dcf9cce	0.1013733
230	0x3d7e90cf	0.06214982
231	0xbcfa2ac5	-0.030537972
232	0xbdcf51d6	-0.10123031
233	0xbd5cb993	-0.053887915
234	0x3b756e88	0.0037449915
235	0x3e005464	0.12532192
236	0x3df397f2	0.11894216
237	0x3c988565	0.018618295
238	0x3cc0f672	0.023555014
239	0xbd7f0c5c	-0.062267646
240	0x3d4319fc	0.047632203
241	0x3da168c7	0.07881313
242	0x3d92014f	0.07129156
243	0xbd5d74f3	-0.05406661
244	0xbe0bccd8	-0.1365236
245	0xbd1bdec5	-0.038054246
246	0x3c4c3d66	0.01246581
247	0xbdc66a6c	-0.09688267
248	0x3da2d978	0.07951635
249	0xbdf6779c	-0.120345324
250	0xbd50fa1c	-0.051019773
251	0xbc5557dd	-0.0130214365
252	0xbb113176	-0.0022154725
253	0xbd801b85	-0.06255249
254	0x3d12cdcf	0.035840806
255	0xbc3fa383	-0.011696699

bias f4 [128]
0	0xbd90bcd3	-0.07067265
1	0x3d559a25	0.052148957
2	0x3d1d2c8a	0.038372554
3	0xbdcb872a	-0.0993789
4	0x3b76897e	0.0037618573
5	0x3d3decfe	0.04636859
6	0xbdfbe163	-0.122988485
7	0xbe08acd0	-0.13347173
8	0xbdf1ab98	-0.11800307
9	0xbd9648ed	-0.07338128
10	0xbd3bc152	-0.04583866
11	0x3c8c1336	0.017099004
12	0xbdd6dcac	-0.104913086
13	0xbdcea066	-0.10089187
14	0x3d4f2c40	0.05057931
15	0xbdd0c2da	-0.10193415
16	0xbdcb6ca1	-0.09932829
17	0xbd2c358f	-0.042043265
18	0xbd8165b6	-0.06318228
19	0xbbd193d8	-0.006395798
20	0xbddf4da6	-0.10903482
21	0x3c3b0265	0.011414145
22	0xbd1ed10a	-0.038773574
23	0x3d99914b	0.074984156
24	0x3c4b4d1c	0.012408521
25	0x3d8b9647	0.068157725
26	0x3d16e411	0.036838595
27	0xbd3cb893	-0.04607446
28	0x3d1e4254	0.038637474
29	0x3bf3525c	0.0074255895
30	0xbd58eb50	-0.052958786
31	0xbd03d8ad	-0.03218906
32	0xbe086e73	-0.13323383
33	0xbd941d10	-0.07232106
34	0xbd465b64	-0.048427
35	0x3d358c8c	0.04432349
36	0xbd234cb1	-0.03986806
37	0xbdf585f8	-0.11988443
38	0xbdb76ca6	-0.0895627
39	0xbe0e32d5	-0.13886578
40	0xbdb72244	-0.089420825
41	0xbcca9747	-0.024730338
42	0x3d191670	0.037374914
43	0xbcdc59fa	-0.026898373
44	0xbe22ca80	-0.1589756
45	0xbdfa3e84	-0.12218955
46	0x3ce74932	0.028233144
47	0xbd13a51d	-0.036046136
48	0xbd6c7095	-0.057724554
49	0xbe027c38	-0.12742698
50	0x3d8531b4	0.06503621
51	0xbd286f3c	-0.041121706
52	0x3cab82fb	0.02093648
53	0xbdcc4220	-0.0997355
54	0xbdae4344	-0.08508924
55	0x3daa2c88	0.08309275
56	0x3ced7d8c	0.02899053
57	0xbdbc3e83	-0.09191611
58	0xbd90af33	-0.070646666
59	0xbd8ac496	-0.06775777
60	0x3c81f6ec	0.015864812
61	0xbb1925d6	-0.00233685
62	0x3c73586c	0.014852624
63	0xbb3bc8a8	-0.0028653536
64	0xbe2136f4	-0.15743619
65	0xbe111a69	-0.14170231
66	0x3bcf294d	0.006322062
67	0xbd3d21b5	-0.046174724
68	0xbda79eb4	-0.08184567
69	0xbd95d930	-0.07316816
70	0x3d9aa8f5	0.07551757
71	0xbd4cd7fb	-0.050010663
72	0x3dbf73a5	0.09348229
73	0xbe0ad961	-0.13559486
74	0xbc7ec573	-0.015550005
75	0xbdc434ed	-0.09580407
76	0xbdbc9d47	-0.09209686
77	0xbd934c54	-0.07192293
78	0x3ccb9f7c	0.024856322
79	0xbd172731	-0.03690261
80	0x3d631c98	0.05544719
81	0x3d98273d	0.07429359
82	0x3db01c78	0.0859918
83	0x3ca5e89a	0.020252515
84	0xbd6d07cc	-0.057868764
85	0x38d6f544	0.000102499995
86	0xbdeb3322	-0.11484362
87	0x3d9b516c	0.07583889
88	0x3d9f3123	0.07773044
89	0xbd11b7a4	-0.035575524
90	0xbcbfeade	-0.023427423
91	0xbd8f59c8	-0.06999546
92	0x3c4469a7	0.01198808
93	0x3d088d7c	0.033338055
94	0x3cc25a66	0.023724746
95	0x3d240b73	0.04004998
96	0xbe083cf0	-0.13304496
97	0xbdc66c1b	-0.09688588
98	0x3d36202f	0.044464286
99	0x3d800f83	0.062529586
100	0x3c8b39c5	0.01699532
101	0xbd504adc	-0.05085264
102	0x39ca5e00	0.00038598478
103	0x3da21ab3	0.07915249
104	0x3d0dd685	0.03462841
105	0xbd8d0241	-0.068851955
106	0xbbabb4f6	-0.005240078
107	0xbdbb7656	-0.0915343
108	0xbd8a9669	-0.0676697
109	0xbd7fbb54	-0.06243451
110	0x3beed301	0.007288337
111	0xbce87d0d	-0.028379941
112	0xbc553a4e	-0.013014389
113	0x3d8da451	0.069161065
114	0x3ba628af	0.005070768
115	0x3dba5b5d	0.090994574
116	0x3d8a2923	0.067461275
117	0xbda2bab2	-0.079457656
118	0x3c7e08f0	0.015505061
119	0xbb4b2cfd	-0.0031002157
120	0x3c05899b	0.0081504835
121	0x3d70d587	0.058797386
122	0x3d4ae015	0.049530108
123	0x3ca9cbbb	0.02072703
124	0xbae44e14	-0.0017418289
125	0xbd887a06	-0.06663899
126	0xbdf7ef73	-0.12106218
127	0x3da02e30	0.078213096

weight f4 [128, 128]
0	0x3caadb62	0.020856563
1	0xbc502057	-0.012703023
2	0x3a911ec1	0.0011071787
3	0xbd1a4ac2	-0.03766895
4	0xbd2c5bd4	-0.04207976
5	0xbd05f993	-0.032708716
6	0xbce69005	-0.028144846
7	0x3cf75cd4	0.030195631
8	0x3d25cd2c	0.04047887
9	0x3c790db3	0.01520102
10	0xbcb8b024	-0.022544928
11	0x3cad4081	0.021148922
12	0x3d5d7ce8	0.054074198
13	0xbcb8c527	-0.022554947
14	0x3b961a3a	0.004580763
15	0x3d5cdd29	0.053921852
16	0x3d27e819	0.04099283
17	0xbd61996a	-0.055077948
18	0xbcb0cb6a	-0.02158137
19	0xbd039c40	-0.032131433
20	0x3d122007	0.035675075
21	0xbd2d718c	-0.042344615
22	0xbd6bcf1e	-0.05757057
23	0xbd2b398a	-0.04180292
24	0xbb25a843	-0.0025277294
25	0xbcc7b2e2	-0.02437729
26	0xbcce81ea	-0.025208432
27	0x3c264950	0.010149315
28	0xbd30362e	-0.04302042
29	0x3cf7f4ec	0.030268155
30	0x3b5d06e6	0.0033726036
31	0x3d3bedeb	0.045881193
32	0x3d69e358	0.057101578
33	0xbcd5044e	-0.02600303
34	0xbd2d83a3	-0.042361867
35	0xbc10beac	-0.008834522
36	0x3d420dbf	0.04737639
37	0xbc504c09	-0.012713441
38	0xbdde682f	-0.10859715
39	0xbd4b4fdc	-0.049636707
40	0x3d08beec	0.033385202
41	0xbd82eec7	-0.063931994
42	0xbc561410	-0.013066307
43	0xbd239883	-0.03994037
44	0xbc5e2752	-0.013559179
45	0x3b424636	0.00296439
46	0xbd5f7222	-0.054552205
47	0xb97f8b0a	-0.00024370491
48	0x3cd5c188	0.02609326
49	0xbd4eb50c	-0.05046563
50	0x3c745423	0.014912638
51	0x3c295a5c	0.010336485
52	0x3d21b361	0.03947771
53	0xbd06308d	-0.032761145
54	0x3d2901a4	0.04126133
55	0xbc18ae2f	-0.009318872
56	0x3cc797f3	0.024364447
57	0xbb4d19e7	-0.0031295957
58	0x3d35e2e6	0.04440584
59	0xbc45888e	-0.012056483
60	0x3d469562	0.048482306
61	0xbd0fedda	-0.035138942
62	0xb9a05e55	-0.0003058786
63	0x3cb3e322	0.021958891
64	0xbd45bf7c	-0.048278317
65	0xbc6200b0	-0.013794109
66	0x3c0ad431	0.008473442
67	0x3d2dfdca	0.04247836
68	0xbd346d09	-0.044049297
69	0xbd4895cf	-0.048970994
70	0x3c9802a9	0.018555956
71	0x3c1c9284	0.009556416
72	0xbd56e110	-0.05246073
73	0x3d5d6838	0.05405447
74	0xbd68ebe8	-0.056865603
75	0xbb7f3809	-0.0038943312
76	0x3d23682d	0.03989427
77	0xbc64bd2a	-0.013961116
78	0x3bc83816	0.0061102016
79	0x3d580d0a	0.05274681
80	0xbd54279e	-0.051795594
81	0xbd57d7f3	-0.05269618
82	0x3d423858	0.047417015
83	0xbb9ee34e	-0.004848874
84	0xbd1bfa31	-0.038080398
85	0x3ca0597d	0.019573921
86	0x3c0ca835	0.008585026
87	0x3d5dc8fc	0.05414675
88	0xbc2ccfcd	-0.01054759
89	0xbd5d2156	-0.05398687
90	0xbb9926a0	-0.004673794
91	0x3d22c953	0.03974278
92	0xbd2eac38	-0.04264471
93	0xbd5e29f4	-0.05423923
94	0xbd66203e	-0.056183092
95	0xbcb62706	-0.022235405
96	0xbd6b2007	-0.05740359
97	0x3c87a267	0.016556932
98	0xbd4ad2d0	-0.049517453
99	0xbc4bd685	-0.012441282
100	0x3bdcb8db	0.0067359037
101	0x3d2a8685	0.041632194
102	0xbcc679bd	-0.024227971
103	0x3d1e2c8e	0.03861671
104	0xbd49866b	-0.049200457
105	0x3d4cde10	0.050016463
106	0xbcf4ec1b	-0.02989774
107	0xbd27287c	-0.040810093
108	0x3d14a1be	0.036287062
109	0xbcaa67b5	-0.020801404
110	0x3c142a2f	0.0090432605
111	0xbbb60fe7	-0.005556095
112	0xbc247752	-0.010038214
113	0x3d5db218	0.05412492
114	0x3abb526a	0.0014291529
115	0x3c3715f9	0.011174672
116	0x3c947f3d	0.018127078
117	0xbd106c4d	-0.035259534
118	0x3cec48d5	0.028843323
119	0x3d415d96	0.04720839
120	0x3c5d6cf8	0.01351475
121	0xbccf4f57	-0.025306387
122	0x3d55e59f	0.052220937
123	0xbc99099f	-0.018681346
124	0x3c4ecf72	0.012622701
125	0x37e4e757	2.7287444e-05
126	0x3c19cc21	0.009387047
127	0x3ca353eb	0.019937476
128	0xba9767c0	-0.0011551306
129	0xbce751c8	-0.028237239
130	0xbcbff035	-0.02342997
131	0x3cce75a6	0.025202584
132	0x3ca8c11a	0.02059989
133	0xbd19804e	-0.037475877
134	0xbd18d0ae	-0.037308387
135	0x3c0f1449	0.008732864
136	0x3d2b735c	0.041858062
137	0xbd8e886c	-0.06959614
138	0x3d0eb30d	0.034838725
139	0x3d63b158	0.05558905
140	0xbcaa6f6d	-0.020805085
141	0xbd3b4ce9	-0.045727644
142	0x3cf88f80	0.030341864
143	0x3b56b0dc	0.0032759225
144	0xbd48ecf5	-0.049054105
145	0xbd3105b0	-0.043218315
146	0x3d27519e	0.04084932
147	0xbd5a1f3b	-0.05325244
148	0x3d5a7a35	0.053339202
149	0x3b93e9ca	0.004513954
150	0x3d1f8cca	0.038952626
151	0x3cf11e91	0.02943352
152	0xbd28eb12	-0.041239806
153	0x3cd52af4	0.026021458
154	0xbd3ade45	-0.04562213
155	0x3b63a6f6	0.0034736968
156	0x3cbfbca0	0.023405373
157	0x3cc2475f	0.023715673
158	0xbb609992	-0.0034271223
159	0x3c814152	0.015778217
160	0x3cfced8c	0.03087499
161	0xbc01b231	-0.007916019
162	0x3cefcd6b	0.029272756
163	0x3d01e132	0.031708904
164	0x3d024dd6	0.03181251
165	0x38f95b79	0.00011890283
166	0xbd1690d1	-0.0367592
167	0xbb854f9c	-0.004068328
168	0xbd49346d	-0.049122263
169	0xbb14682d	-0.0022645101
170	0x3ce2bacd	0.027676964
171	0xbd62971c	-0.05531989
172	0x3beb3bd0	0.007178761
173	0xbd60b523	-0.054860245
174	0x3d84dbc2	0.06487228
175	0x3c3d792d	0.011564535
176	0xbce3a5a0	-0.027788937
177	0x3d2a4653	0.041570973
178	0x3b860eb9	0.0040911105
179	0xbcee3a36	-0.029080492
180	0xbd30f2d8	-0.043200344
181	0x3c6a51e9	0.014301755
182	0x3c1cca93	0.009569782
183	0xbca2b3fc	-0.019861214
184	0xbd01e343	-0.031710874
185	0xbd1afabe	-0.037836783
186	0x3cfeacd2	0.031088267
187	0x3cedfd73	0.029051518
188	0x3c82d402	0.015970234
189	0xbca6f29f	-0.020379363
190	0x3d19d69e	0.03755819
191	0xbd02de42	-0.031950243
192	0xbd591ee9	-0.053007994
193	0x3976112d	0.00023466787
194	0xbc48acd5	-0.012248238
195	0x3d33228e	0.043734126
196	0xbd9b23ab	-0.075751625
197	0x3cf2fd1f	0.029661713
198	0x3b26ce8c	0.0025452701
199	0x3d0a8ee0	0.033827662
200	0x3d0b9f6f	0.034087595
201	0x3c6a06f7	0.014283887
202	0x3d40c513	0.047062945
203	0xbc2312ee	-0.009953244
204	0xbcccbbe6	-0.02499194
205	0xbd13b6c2	-0.036062963
206	0x3d23e2a8	0.040011078
207	0xbd8ccc77	-0.06874936
208	0x3c90d0f6	0.017677765
209	0xbd4b4791	-0.049628798
210	0xbd0caaae	-0.03434246
211	0xbbb5d838	-0.005549457
212	0xbd017ee4	-0.031615153
213	0xbd6c8e46	-0.05775287
214	0x3d3f0195	0.046632368
215	0xbdb1d894	-0.08683887
216	0xbc4eff10	-0.012634054
217	0xbd1f92ba	-0.03895829
218	0xbc0ece59	-0.008716189
219	0x3cd4454e	0.025911953
220	0xbcda04f7	-0.026613696
221	0x3ce625ee	0.028094258
222	0x3d005f40	0.031340837
223	0xbd43580a	-0.047691382
224	0x3c253812	0.010084169
225	0xbd362cb1	-0.044476215
226	0x3bf2f2cf	0.007414199
227	0x3b865c4a	0.004100357
228	0x3ba0b8d4	0.0049048457
229	0x3d37d66e	0.04488223
230	0x3c8a6740	0.016894937
231	0xbc2d844e	-0.010590626
232	0x3d846514	0.064645916
233	0xbd214bc0	-0.03937888
234	0x3d19aa15	0.03751572
235	0xbd1819c6	-0.037133954
236	0x3ce74bbf	0.02823436
237	0x3c6180c7	0.013763613
238	0xbcb83f11	-0.02249101
239	0x3c0facb9	0.008769208
240	0x3cadfdaf	0.02123913
241	0xbd938693	-0.07203402
242	0xbd359063	-0.04432715
243	0x3b9ab1f3	0.00472092
244	0xbd4620f0	-0.048371255
245	0xbd0cd1c4	-0.034379736
246	0x3c18bdbe	0.009322582
247	0x3c8b913e	0.01703703
248	0xbd031e3c	-0.032011256
249	0x3cc85f07	0.024459375
250	0x3d139328	0.03602901
251	0xbd2b5741	-0.04183126
252	0xbd1e4c2a	-0.038646854
253	0xbccbd122	-0.024879996
254	0xbd2e8f2a	-0.042617
255	0x3c7f5f1e	0.015586643

bias f4 [128]
0	0x3cc8f97c	0.024533026
1	0x3de9ec36	0.11422007
2	0xbdad49e0	-0.08461356
3	0x3c4214ef	0.011845811
4	0xb8fee532	-0.00012154355
5	0xbd4a10a0	-0.04933226
6	0xbd4fcd9e	-0.0507332
7	0x3ceca4a2	0.028887097
8	0xbdd91b20	-0.10600877
9	0xbd3ea10c	-0.046540305
10	0xbbd33d99	-0.006446552
11	0x3d0444c6	0.03229215
12	0xbdb47fba	-0.088134244
13	0x3d05cad6	0.032664143
14	0x3ce7d70f	0.02830079
15	0x3c4337b1	0.011915133
16	0xbc4f7c95	-0.01266398
17	0x3bb4d51a	0.0055185677
18	0x3e5dbbc0	0.21653652
19	0xbd6d9e2d	-0.058012176
20	0xbd8db5bb	-0.06919428
21	0xbd3c9160	-0.046037078
22	0x3a8f44bc	0.0010930519
23	0x3e670369	0.22559895
24	0xbb95562e	-0.0045573926
25	0x3e14747f	0.14497565
26	0x3cb1fde0	0.021727502
27	0x3d0ce4f1	0.034398023
28	0x3c8051b5	0.015663961
29	0x3e145a8a	0.14487663
30	0x3d641ac5	0.055689592
31	0x3dfcac8e	0.123376
32	0x3c83b68c	0.016078256
33	0x3cee1f87	0.029067768
34	0x3e8ed4d4	0.2789675
35	0x3a9c9785	0.0011947012
36	0x3ddbd8a5	0.10734681
37	0xbcfb3329	-0.030664044
38	0xbd270fd5	-0.040786583
39	0x3e61f948	0.2206775
40	0x3af23105	0.0018477744
41	0xbca93386	-0.020654451
42	0xbc90a655	-0.017657438
43	0xbbe68945	-0.007035407
44	0xbd0392f6	-0.032122575
45	0xbd876419	-0.06610889
46	0x3de7165d	0.11283562
47	0xbc4e5b05	-0.012594943
48	0x3c26932d	0.010166925
49	0xbd2d5f45	-0.042327184
50	0x3bfd24b4	0.0077253226
51	0xbd61e20f	-0.055147227
52	0x3daabb40	0.08336496
53	0xbd1593e6	-0.036518
54	0x3ceb5480	0.028726816
55	0x3d3ffb96	0.04687079
56	0xbd969b13	-0.07353797
57	0xbce72342	-0.028215054
58	0xbd9f14de	-0.07767652
59	0xbd99e099	-0.07513542
60	0x3b52b5bd	0.0032151781
61	0x3d1766e4	0.03696336
62	0xbd895ad7	-0.067067795
63	0xbcdf026e	-0.027222838
64	0xbd6bedce	-0.057599835
65	0xbd19b775	-0.037528474
66	0x3e0e5987	0.1390134
67	0x3d699a12	0.0570317
68	0xbcc6a6ee	-0.02424952
69	0x3b0e7113	0.0021734878
70	0x3d1447d4	0.036201313
71	0xbb737ddc	-0.0037153875
72	0xbc0da555	-0.008645375
73	0x3d3ebf16	0.046568953
74	0xbd642351	-0.055697743
75	0x3be2d0d4	0.006921867
76	0x3e63ee32	0.22258833
77	0x3d1af0f9	0.037827466
78	0xbc3d2342	-0.011544051
79	0x3cdf19a2	0.027233902
80	0xbd8183ea	-0.06323989
81	0xbb85b2d4	-0.004080156
82	0xbd5b9934	-0.053612903
83	0xbd5b93a3	-0.053607594
84	0xbd2df702	-0.042471893
85	0xbd129a06	-0.03579142
86	0xbd1b4240	-0.037904978
87	0xbcd40d2c	-0.025885187
88	0xbd0dc654	-0.03461297
89	0x3d038c3d	0.032116164
90	0xbd0c8856	-0.034309708
91	0x3a2cabd1	0.0006586882
92	0xbce9b8e7	-0.028530551
93	0x3d14a67a	0.036291577
94	0x3dd12a67	0.10213166
95	0x3bf141e2	0.00736259
96	0xbd5bfd7b	-0.053708535
97	0xbb0587c0	-0.0020375103
98	0x3cbb158e	0.022837427
99	0x3bde9718	0.006792914
100	0xbd364a3a	-0.04450438
101	0x3c8f0b7e	0.017461535
102	0xbd76e538	-0.060277194
103	0x3c61bd9c	0.013778117
104	0xbd86e02d	-0.06585727
105	0x3d6dc0b0	0.05804509
106	0x3c15e43a	0.009148652
107	0xbbe133f2	-0.0068726474
108	0xbaf3d317	-0.0018602338
109	0x3c2532d0	0.010082915
110	0xbd148f3f	-0.036269423
111	0x3c6b18cd	0.014349175
112	0xbd6f8595	-0.058477003
113	0x3cf0fe60	0.02941817
114	0x3c99ef2a	0.0187908
115	0xbcc8bc39	-0.024503814
116	0xbc5b8778	-0.0133989975
117	0xbaedd6df	-0.0018145702
118	0xbcd63ad8	-0.026151106
119	0xbc712a61	-0.014719577
120	0xbda3be3e	-0.0799527
121	0xbd434b1a	-0.047679044
122	0xbda8309a	-0.08212395
123	0xbd7a13f1	-0.061054174
124	0x3c01ab15	0.007914324
125	0xbc2c7427	-0.01052574
126	0xbd77ce7a	-0.060499646
127	0xbd2bbafb	-0.041926365

weight f4 [4, 128]
0	0x3c719913	0.014745968
1	0x3cd776f8	0.026301846
2	0x3c910d6d	0.017706597
3	0x3c87d133	0.016579246
4	0x3d3952d1	0.045244996
5	0xbd00465b	-0.031317096
6	0x3c0b5b08	0.00850559
7	0xbc9b01dd	-0.018921787
8	0x3cbf0fe7	0.023323013
9	0x3d452e4e	0.048139863
10	0xba3ebed3	-0.000727636
11	0xbd00191a	-0.03127394
12	0xbca5b924	-0.020229883
13	0xbb4575d8	-0.0030130055
14	0x3cb24973	0.021763539
15	0x3c6e57c3	0.014547291
16	0xbbe04c90	-0.0068450645
17	0x3bbe7d05	0.0058132433
18	0x3d7add0b	0.06124596
19	0xbc933071	-0.017967435
20	0x3bd6630c	0.006542569
21	0x3a96ee0d	0.0011515036
22	0x3b508069	0.003181482
23	0x3d820bf3	0.063499354
24	0xbd369f99	-0.044585798
25	0x3d379d2f	0.044827636
26	0x3b922d7e	0.0044609895
27	0xbd1d7f32	-0.03845138
28	0x3c92d646	0.01792444
29	0x3c4358bd	0.011923012
30	0xbbcb5e8d	-0.0062063397
31	0xbc303594	-0.0107549615
32	0x3d0836dc	0.033255443
33	0x3b760578	0.003753988
34	0x3d848c15	0.06472031
35	0x3c841973	0.016125416
36	0x3cc4f8d1	0.024044426
37	0xbbefcbcc	-0.0073179957
38	0xbd2c859f	-0.04211962
39	0x3d56c999	0.052438352
40	0x3c533a2f	0.01289229
41	0x3d5bb386	0.053638004
42	0xbd07f628	-0.033193737
43	0xbd13b632	-0.036062427
44	0xbc9c1728	-0.01905401
45	0x3cd24a9b	0.02567034
46	0x3bc272ee	0.005934111
47	0x3d0aa728	0.03385082
48	0xbc44a240	-0.012001574
49	0x3d4cfb81	0.05004454
50	0x3d6246ba	0.05524323
51	0x3cb705df	0.022341667
52	0x3bf17827	0.0073690596
53	0xbd440d8c	-0.04786448
54	0xbbd14fde	-0.0063876947
55	0xbbad6115	-0.005291114
56	0x3bd6f3e0	0.006559834
57	0xbca5472f	-0.020175545
58	0xbceb103b	-0.028694263
59	0xbb04192b	-0.0020156603
60	0x3c686151	0.014183358
61	0x3cb6c8c0	0.022312522
62	0xbcf68558	-0.03009288
63	0xbc881cb7	-0.016615255
64	0xbc7ca262	-0.015419574
65	0xbcbdef1b	-0.023185303
66	0x3c523d3a	0.01283198
67	0x3ca42c6a	0.02004071
68	0x3c59edd3	0.013301331
69	0x3d5d3a12	0.05401046
70	0x3c7125e5	0.014718507
71	0x3b8d34dd	0.0043092803
72	0x3d15d9aa	0.036584534
73	0x3b31e8f5	0.002714691
74	0x3c1ff6b1	0.009763406
75	0x3bf41cae	0.007449708
76	0x3d2d27eb	0.042274397
77	0x3c2c5ee2	0.010520669
78	0x3ce06f40	0.027396798
79	0xbd23bbf6	-0.039974175
80	0xbc8f2807	-0.017475141
81	0xbc799def	-0.015235408
82	0xbd0e612c	-0.03476064
83	0xbd6551b4	-0.05598612
84	0xbc1d842c	-0.009614032
85	0xbbf0c225	-0.0073473626
86	0xbd0372f8	-0.032092065
87	0x3c79f63f	0.015256464
88	0x3b2da5d0	0.0026496537
89	0x3c81fa6b	0.015866479
90	0x3d3586e8	0.04431811
91	0x3d25ad10	0.04044825
92	0xbc921bb5	-0.017835477
93	0xbce4f7e2	-0.027950231
94	0x3d3dbfc7	0.04632547
95	0xbcce9039	-0.025215255
96	0xbb0169a6	-0.001974681
97	0xbbdf4c48	-0.0068145134
98	0xbc80978a	-0.01569726
99	0xbbd60641	-0.0065315072
100	0xbcc48fd7	-0.02399437
101	0x3a7ff70b	0.00097642903
102	0xbca5c0ca	-0.02023353
103	0x3c8e7f39	0.017394649
104	0xbc05d34d	-0.008168054
105	0x3bd1384e	0.006384886
106	0x3c777b97	0.01510515
107	0x3c7421c4	0.0149006285
108	0x3c4c5f41	0.012473882
109	0xbccfc9d3	-0.025364792
110	0xbd07852b	-0.033085983
111	0xbcb40b66	-0.021978091
112	0xbccadb96	-0.02476291
113	0x3cfcba28	0.030850485
114	0x3b2ac01f	0.0026054455
115	0x3bc5a48f	0.00603158
116	0xbbff930e	-0.0077995127
117	0xbc763c9e	-0.015029101
118	0x3c80002e	0.015625086
119	0xbc987289	-0.018609302
120	0xbbab07bf	-0.0052194293
121	0xbcd165bb	-0.025561204
122	0xbce037ae	-0.0273703
123	0xbd370ba1	-0.044688825
124	0xbc3d3a24	-0.011549506
125	0xbc92b862	-0.017910186
126	0x3d5ed3b0	0.0544011
127	0xbd084723	-0.033270966
128	0x3d51856d	0.051152635
129	0x3ae1c87a	0.0017225884
130	0xbd0faff3	-0.035079908
131	0x3cdfa09e	0.027298268
132	0x3cbcb0f5	0.023033598
133	0xbcd04f58	-0.025428459
134	0xbc32d114	-0.010914106
135	0xbb99eb25	-0.004697221
136	0x3bf59877	0.007494982
137	0xbd4070bf	-0.046982523
138	0x3b48f505	0.003066362
139	0xbd0f027b	-0.034914475
140	0xbd38ea19	-0.045145128
141	0xbd370470	-0.044681966
142	0xbb925ff2	-0.004467004
143	0x3d34808d	0.044067908
144	0xbc09cac0	-0.008410156
145	0xbb282dab	-0.0025661986
146	0x3db5da2a	0.08879502
147	0xbc1e7cab	-0.009673278
148	0xbca55b5d	-0.020185167
149	0xbd12251d	-0.035679925
150	0xbc81dc60	-0.015852153
151	0x3d040862	0.032234557
152	0xbd603f46	-0.054747842
153	0x3d421a91	0.047388617
154	0x3c23cf2b	0.009998123
155	0xbcb0bcd4	-0.021574415
156	0xbc18cc1e	-0.009326009
157	0x3c861e6e	0.016371932
158	0x3d11a159	0.035554264
159	0x3d257773	0.04039712
160	0xbcb91588	-0.022593275
161	0xbc4f79e6	-0.01266334
162	0x3d2ec73e	0.04267048
163	0xbc1ee007	-0.009696967
164	0x3ca69cfe	0.020338532
165	0x3c18d029	0.009326973
166	0x3c3e0f94	0.011600394
167	0x3d6d6f25	0.057967324
168	0x3c4eb2a0	0.01261583
169	0x3d05216a	0.03250257
170	0xbbd01586	-0.006350222
171	0x3c64de75	0.0139690535
172	0xbce1c382	-0.027559046
173	0xbd2ac076	-0.04168745
174	0x3c9d6448	0.019212857
175	0x3cbf0392	0.023317132
176	0xbcf40fee	-0.029792752
177	0x3c206511	0.009789721
178	0xbc69c14b	-0.014267276
179	0x3bdd0765	0.0067452663
180	0x3ce8370f	0.028346566
181	0x3c7e0514	0.01550414
182	0x3cd2b498	0.02572088
183	0xbd10d66c	-0.03536074
184	0x3d60b41c	0.054859266
185	0xbd3de2f3	-0.046359014
186	0xbcc2f02d	-0.023796165
187	0xbada4119	-0.0016651481
188	0x3be5d4d2	0.0070138955
189	0x3bcacd3b	0.006189016
190	0xbbbeb6f2	-0.0058201486
191	0x3b1631bb	0.0022917825
192	0x3cc568ab	0.024097761
193	0x3d399403	0.04530717
194	0xba81eebc	-0.0009913067
195	0x3bec4568	0.0072104223
196	0xbbcab723	-0.0061863824
197	0x3c5b3c8b	0.013381134
198	0x3b47db8b	0.0030495848
199	0x3be8377a	0.0070866914
200	0x3c72ac29	0.014811554
201	0x3c1bc2ee	0.009506924
202	0xbce00247	-0.027344836
203	0x3b786a21	0.0037905055
204	0x3d2ce79e	0.042213075
205	0x3aa0d9ee	0.0012271979
206	0xbc288ec1	-0.010287941
207	0xbd313c91	-0.04327065
208	0x3c8cd508	0.017191425
209	0xbca44171	-0.020050736
210	0xbd006b54	-0.031352356
211	0xbd5208bd	-0.051277865
212	0xbce136a3	-0.027491873
213	0x3a49afe7	0.0007693753
214	0xbc84a5a9	-0.016192274
215	0x3ce9c912	0.02853826
216	0xbb4a7066	-0.0030889749
217	0xbd49ff6b	-0.04931585
218	0xbc9cb755	-0.019130388
219	0xbc8ec5b3	-0.017428255
220	0x3c9755d8	0.01847355
221	0xbc55e8d1	-0.013055996
222	0x3d092f79	0.03349254
223	0xbc6f6e4e	-0.014613701
224	0xbbc4c186	-0.006004515
225	0xbcdbb254	-0.026818432
226	0xbce4f9af	-0.02795109
227	0x3b64fad6	0.003493955
228	0xbc76e110	-0.0150683075
229	0x3c4964d3	0.012292105
230	0xbc869f9a	-0.016433526
231	0x3d0e68c7	0.034767892
232	0xbc008381	-0.007843853
233	0x3bd1c747	0.0064019295
234	0x3c2ed426	0.010670697
235	0x3c2d0adc	0.010561671
236	0x3b9d8800	0.004807472
237	0xbd03e250	-0.03219825
238	0xbc3158e0	-0.010824412
239	0x3d556713	0.052100252
240	0x3c7a0143	0.01525909
241	0xbc6c0c94	-0.014407296
242	0xbc824507	-0.015902055
243	0x3b5975ef	0.0033181866
244	0x3c4f6999	0.012659454
245	0xbcf2c4e9	-0.02963491
246	0xbb60cff0	-0.0034303628
247	0x3c16bea0	0.009200722
248	0x3c89bae5	0.016812751
249	0xbcb3c6a6	-0.021945309
250	0xbd3b957f	-0.045796867
251	0x3d5fe0e2	0.054657824
252	0x3cc7e268	0.024399951
253	0x3c6d66f6	0.01448988
254	0x3c12012e	0.008911414
255	0xbd01758d	-0.031606246

bias f4 [4]
0	0x3e9ce31a	0.30642015
1	0x3e3268c9	0.17422785
2	0x3ebb837a	0.36623746
3	0x3e2707c5	0.16311558
