policies/policy1.pth (torch, 86280 bytes, 6 tensors)

weight f4 [128, 28]
-0.05550349 0.056862663 1.313663 -1.4335673 -0.16685551 0.18645552 -0.048151866 0.048345864
0.042505383 -0.05644428 0.3485976 -0.6810293 0.3036486 -0.19428141 0.06742973 0.06432474
-0.02120805 0.07246224 0.019401742 0.0044366885 -0.049984284 -0.039119594 -0.15550742 -0.19296807
0.029356025 0.018047579 0.11972783 -0.11362203 0.13214679 -0.0098204985 -0.6764134 1.3471206
-0.73782057 0.034332875 0.0639161 0.20190139 0.11187582 0.17403789 0.10557155 0.1462089
0.017654676 -0.029971957 0.07418877 -0.0848506 -0.08934249 0.055307098 -0.17616285 -0.13111643
-0.17938489 -0.028586932 0.00053828163 0.07247638 0.0047897715 0.0039826385 -0.13797463 -0.008797964
0.06940547 -0.1235179 -0.402936 1.5024543 -1.2340752 0.05107237 0.04856811 0.056709252
0.041672196 0.02616211 0.09051649 0.6385426 0.21542951 -0.56718016 -0.16384986 -0.0011229336
-0.19254112 0.1276607 0.00032141962 -0.1226 0.101071335 0.09156974 -0.008572226 -0.25406966
0.049550783 -0.10733801 -0.16064079 -0.084904365 -0.028009418 0.073685326 0.13559078 0.053294398
-0.010014701 -0.013511 -0.0069970908 -0.060397666 0.009682996 -0.048720382 0.08500757 0.0986736
-0.11486256 -0.13272749 -0.050622646 -0.13934664 0.092025936 -0.0024735203 0.119893886 -0.068713
-0.059067182 -0.11326281 -0.115611196 0.062974595 -0.074069716 -0.14242709 -0.02823804 0.08376867
0.1149887 0.06445673 0.5491381 0.0041664005 -0.2960139 -0.17829996 0.09301954 0.17999399
0.08526417 0.1461827 0.05507341 -0.04123133 -0.16039042 -0.060945164 -0.14812873 0.061468862
0.076497175 0.04548757 -0.017254869 -0.020901658 0.01673459 0.034994617 -0.16288288 -0.04759115
0.062122036 0.032662682 -0.009747051 -0.012331628 0.063919604 0.0772777 -1.1616045 -0.29557762
0.2244788 0.45907855 -0.12545209 0.09718226 0.05403997 -0.17839104 -0.16078329 -0.13079391
0.11943158 0.32543465 0.0004424171 0.093984 0.0048405607 0.124281935 -0.020361636 -0.1304533
0.11675293 -0.10868633 -0.064275764 -0.053946692 -0.043230124 -0.0023706972 -0.03643027 -0.04792035
-0.047158223 -0.015172367 0.023286633 0.12874831 -0.028788231 0.08143033 -0.13165414 -0.12523325
0.11421855 -0.06900675 -0.024058355 -0.145384 -0.017005375 -0.17650524 0.1075419 -0.12395433
-0.15517074 -0.099879764 -0.042514607 -0.16536199 -0.10145146 0.0022646978 -0.031556897 0.060159616
-0.095627606 0.11448875 -0.036157418 -0.15499236 -0.09491124 -0.08779244 0.066594064 -0.5368484
-0.21858989 0.47383517 -0.11535104 0.08119513 -0.112432756 0.10673829 0.087615676 -0.02843262
0.019362504 -0.065806165 -0.053742427 -0.036787715 0.0012750631 -0.025025668 -0.007586412 0.107988805
0.022741783 0.014905283 0.095841534 0.04795995 0.108689204 -0.0916743 0.12368384 -0.12302313
-0.106686845 0.06307153 0.41248977 -0.24922472 -0.09155923 0.016835859 0.15245615 0.1777721
0.14694135 0.013637576 -0.0751836 -0.1257374 0.19635247 0.10662825 -0.07040605 0.07309643
0.08455563 0.044880282 0.0021027473 0.10416363 -0.0073433975 0.08995072 0.034609366 -0.034096792
-0.14634652 0.04929353 -0.040736884 0.06607618 0.13004535 0.11785494 -0.18951209 0.853584
00000000: a157 63bd d3e8 683d 1c26 a83f 227f b7bf
00000010: 2cdc 2abe 32ee 3e3e e43a 45bd 5006 463d
00000020: 201a 2e3d 1e32 67bd 627b b23e f057 2ebf
00000030: d477 9b3e b5f1 46be 9918 8a3d b0bc 833d
00000040: 81bc adbc 1567 943d 67f0 9e3c a461 913b
00000050: 52bc 4cbd de3b 20bd 563d 1fbe 6c99 45be
00000060: 0c7c f03c 84d8 933c dd33 f53d abb2 e8bd
00000070: 7d51 073e 28e6 20bc 6e29 2dbf 736e ac3f
00000080: cfe1 3cbf a1a0 0c3d 72e6 823d 3dbf 4e3e
00000090: 261f e53d fd36 323e e635 d83d c9b7 153e
000000a0: 8aa0 903c c087 f5bc 48f0 973d 27c6 adbd
000000b0: 32f9 b6bd b289 623d 0964 34be 6343 06be
000000c0: acb0 37be 242f eabc 781b 0d3a 7f6e 943d
000000d0: 84f3 9c3b cb80 823b 3949 0dbe 5625 10bc
000000e0: 7424 8e3d f4f6 fcbd a14d cebe 6c50 c03f
000000f0: 2df6 9dbf 4331 513d 5bef 463d f647 683d
00000100: 77b0 2a3d ec51 d63c b660 b93d 8777 233f
00000110: 8e99 5c3e b832 11bf 42c8 27be 662f 93ba
00000120: 8029 45be 7db9 023e 3684 a839 b515 fbbd
00000130: 7dfe ce3d ea88 bb3d 8672 0cbc 6b15 82be
00000140: c3f5 4a3d 08d4 dbbd 057f 24be 57e2 adbd
00000150: 0274 e5bc 55e8 963d 4fd8 0a3e 3a4b 5a3d
00000160: b314 24bc 3e5d 5dbc da47 e5bb 8b63 77bd
00000170: 6ea5 1e3c 068f 47bd 7318 ae3d 6215 ca3d
00000180: 103d ebbd b7e9 07be b159 4fbd e3b0 0ebe
00000190: 1878 bc3d c91a 22bb ed8a f53d 67b9 8cbd
000001a0: 6ef0 71bd 55f6 e7bd 90c5 ecbd d3f8 803d
000001b0: ddb1 97bd 68d8 11be 7653 e7bc e98e ab3d
000001c0: 327f eb3d e401 843d 5194 0c3f 4d86 883b
000001d0: 228f 97be 4494 36be 0781 be3d 5850 383e
000001e0: fb9e ae3d ebb0 153e a894 613d 2fe2 28bd
000001f0: 633d 24be a3a1 79bd 0faf 17be c6c6 7b3d
00000200: 8daa 9c3d 2d51 3a3d 155a 8dbc f439 abbc
00000210: fb16 893c 8456 0f3d c5ca 26be f0ee 42bd
00000220: ad73 7e3d 4ec9 053d 18b2 1fbc 990a 4abc
00000230: 48e8 823d c543 9e3d 75af 94bf f355 97be
00000240: c5dd 653e 580c eb3e 8376 00be 7e07 c73d
00000250: 0459 5d3d 24ac 36be 60a4 24be d7ee 05be
00000260: 8b98 f43d 5f9f a63e 38f4 e739 af7a c03d
00000270: 919d 9e3b 8787 fe3d 72cd a6bc 8d95 05be
00000280: 291c ef3d f096 debd 03a3 83bd 35f7 5cbd
00000290: 1212 31bd b35d 1bbb e837 15bd 2148 44bd
000002a0: fb28 41bd 8595 78bc 9cc3 be3c 99d6 033e
000002b0: 4cd5 ebbc f2c4 a63d 58d0 06be 253d 00be
000002c0: 6aeb e93d 6953 8dbd 0716 c5bc 8bdf 14be
000002d0: db4e 8bbc cabd 34be ed3e dc3d c5db fdbd
000002e0: 14e5 1ebe c38d ccbd cc23 2ebd a754 29be
000002f0: c8c5 cfbd 536b 143b ce41 01bd ee69 763d
00000300: 68d8 c3bd 1479 ea3d cd19 14bd 51b6 1ebe
00000310: d360 c2bd 86cc b3bd 7862 883d e66e 09bf
00000320: 07d6 5fbe 869a f23e 2b3d ecbd a249 a63d
00000330: 2543 e6bd 9b99 da3d d96f b33d 87eb e8bc
00000340: 1d9e 9e3c 62c5 86bd 0521 5cbd b7ae 16bd
00000350: 0520 a73a a102 cdbc 7097 f8bb 3c29 dd3d
00000360: fa4c ba3c 4a35 743c 9148 c43d a771 443d
00000370: 7298 de3d bcbf bbbd f44d fd3d 8df3 fbbd
00000380: a27e dabd a52b 813d dc31 d33e c434 7fbe
00000390: 6883 bbbd 5beb 893c 771d 1c3e e409 363e
000003a0: cb77 163e 2470 5f3c dcf9 99bd 4ec1 00be
000003b0: 9f10 493e e95f da3d 0c31 90bd 95b3 953d
000003c0: 812b ad3d 63d4 373d 3fce 093b be53 d53d
000003d0: e2a0 f0bb 1538 b83d 8dc2 0d3d 14a9 0bbd
000003e0: dddb 15be 03e8 493d b8db 26bd f352 873d
000003f0: 9c2a 053e ee5d f13d 750f 42be 7b84 5a3f

bias f4 [128]
-0.06311539 -0.01828622 0.086986184 -0.10331386 -0.086768456 -0.11972879 0.08151984 -0.046552856
0.06676222 -0.09541481 -0.13314036 0.097091265 0.027424524 -0.08287134 -0.068516195 0.12550245
0.024169749 -0.12066382 0.08353448 0.056748375 -0.015619232 0.060066808 0.08667026 -0.12553173
0.007259578 -0.043638457 0.018594136 -0.059364345 -0.004447863 -0.15571514 0.008543011 0.024709294
-0.14609018 -0.08673733 -0.036078848 0.10280409 -0.09635921 -0.020747319 0.11134656 0.12661105
-0.06348141 0.10905643 0.08947734 0.009894523 -0.0067619835 -0.12555127 0.050586782 -0.021145253
0.04216752 0.018148994 0.018279908 0.046091374 -0.06892792 -0.09852573 0.049700473 -0.005824501
0.025378326 -0.0199162 0.06974987 -0.07790914 0.09788426 -0.08143623 -0.045186024 -0.0057522617
0.18094979 0.09732373 -0.058301512 -0.09289901 0.08577892 0.071437135 0.043774214 0.12232013
-0.09399323 0.09069586 -0.04360352 0.069831885 0.07820626 0.029323293 -0.0012508491 -0.021050375
-0.033846375 0.10118393 0.10320916 -0.0009060457 -0.03457454 -0.1017479 -0.022688076 0.09491788
0.097054824 -0.124844514 0.113835484 0.10478319 -0.08193505 0.06647707 0.020107755 -0.040292703
-0.13857889 -0.05107891 -0.015280484 -0.052702375 0.056654233 0.14666519 -0.061389726 0.010232731
-0.110442914 0.071600795 0.07754456 0.023160243 0.11214274 0.08971911 0.07450573 -0.04260901
-0.16647063 -0.14437968 -0.114367366 0.0974943 0.018315464 0.0012014972 0.024373975 0.14740117
0.02937032 -0.09712477 -0.003961453 0.039056607 -0.12093977 0.04463632 -0.07820508 -0.06008147
00000000: a442 81bd fccc 95bc d025 b23d 3896 d3bd
00000010: a9b3 b1bd 5e34 f5bd e0f3 a63d 35ae 3ebd
00000020: a1ba 883d d768 c3bd f255 08be c9d7 c63d
00000030: 65a9 e03c 73b8 a9bd 3852 8cbd b783 003e
00000040: a3ff c53c 981e f7bd 2014 ab3d fc70 683d
00000050: cfe7 7fbc 9d08 763d 2d80 b13d 648b 00be
00000060: c1e1 ed3b 3dbe 32bd bb52 983c 0728 73bd
00000070: 61bf 91bb ca73 1fbe fcf7 0b3c 256b ca3c
00000080: aa98 15be 57a3 b1bd 6ac7 13bd f38a d23d
00000090: fa57 c5bd 48f6 a9bc aa09 e43d 54a6 013e
000000a0: 8b02 82bd fa58 df3d e53f b73d a31c 223c
000000b0: a193 ddbb 8390 00be 1634 4f3d cf38 adbc
000000c0: d9b7 2c3d 33ad 943c bfbf 953c 4fca 3c3d
000000d0: 152a 8dbd dcc7 c9bd b992 4b3d 75db bebb
000000e0: 35e6 cf3c 4c27 a3bc 05d9 8e3d d48e 9fbd
000000f0: 8b77 c83d 0ac8 a6bd fb14 39bd 787d bcbb
00000100: e74a 393e aa51 c73d 91cd 6ebd d641 bebd
00000110: dcac af3d a24d 923d 974c 333d fa82 fa3d
00000120: 867f c0bd c0be b93d 9b99 32bd 0504 8f3d
00000130: 9b2a a03d 6737 f03c 88f3 a3ba d671 acbc
00000140: 7fa2 0abd 8539 cf3d 535f d33d b383 6dba
00000150: 089e 0dbd 3461 d0bd 58dc b9bc 4e64 c23d
00000160: aec4 c63d 7bae ffbd 9422 e93d 9298 d63d
00000170: 90cd a7bd 2125 883d 05b9 a43c f609 25bd
00000180: a0e7 0dbe 1e38 51bd ff5a 7abc 72de 57bd
00000190: 450e 683d 662f 163e cb73 7bbd 2fa7 273c
000001a0: e52f e2bd 70a3 923d afcf 9e3d 8dba bd3c
000001b0: 18ab e53d a7be b73d 7696 983d c986 2ebd
000001c0: 4777 2abe 44d8 13be 7039 eabd 17ab c73d
000001d0: 500a 963c 8e7b 9d3a eeab c73c 55f0 163e
000001e0: 069a f03c 5ae9 c6bd 14cf 81bb d2f9 1f3d
000001f0: 45af f7bd 93d4 363d fc29 a0bd fd17 76bd

weight f4 [128, 128]
-0.059750512 0.019299058 -0.04172319 0.05087999 0.035003427 0.018038664 -0.057153404 -0.025118016
-0.07444245 0.011716948 0.038351394 0.03234483 -0.025688527 0.047126707 0.047379598 0.03171819
0.038798966 -0.013623811 0.011997347 -0.0022723926 -0.07577714 0.05103703 0.058294468 -0.06276995
0.021722274 0.02896972 -0.015808363 0.03443775 -0.036485165 0.017228354 0.045420997 0.034335826
-0.03047915 -0.028882217 -0.01775713 -0.06921011 0.03088507 -0.066855244 -0.033640772 -0.02006893
0.06686933 -0.0125308065 0.045664724 0.017485 -0.05180168 -0.060313478 -0.019665271 -0.05784119
-0.020593226 -0.046733655 -0.07157221 -0.018847264 0.012042861 0.0479354 -0.051127736 0.0030680106
-0.0032847463 -0.041981257 0.04004159 -0.03887138 -0.005547492 0.03653797 -0.011706274 -0.044541117
-0.038995236 0.06350577 -0.080084026 -0.048291538 -0.036199827 0.041343644 -0.036684193 -0.013471035
-0.047590155 -0.00610382 0.030753164 -0.005514028 -0.07145734 -0.030902013 0.026770933 -0.025691072
-0.03792649 0.0546834 0.00035403908 -0.079024404 0.027015349 0.00096434646 0.031034749 -0.05561751
-0.04023043 -0.043204542 -0.00452085 -0.038360823 -0.040254034 -0.013542309 -0.07831712 0.007601341
-0.06222657 -0.056233495 -0.061067533 0.046974245 -0.022204341 0.0047034016 -0.043835215 -0.014513368
-0.019771282 0.025113365 0.06381263 -0.012035084 0.005682364 -0.013347331 -0.039411984 -0.06423495
-0.06752574 -0.06638881 -0.02565982 0.011848629 0.035233844 0.03183475 -0.03245425 -0.05065782
0.0457053 0.04652831 0.030838445 0.034479454 0.019001503 -0.030260745 -0.013838276 -0.06723572
0.03270133 0.03494625 -0.15402329 -0.018770672 0.018561045 -0.0330825 0.0285747 -0.0737029
0.027749758 -0.005073621 -0.0025946323 0.033972085 -0.0058743195 -0.017308328 0.03993296 0.08334581
-0.046983954 -0.047799893 -0.07091133 0.02710629 0.05910723 0.0037378173 0.0034221916 -0.053963464
0.012343497 0.06992318 0.04880421 0.050031886 -0.03923169 -0.02562538 -0.015108009 0.0062997933
0.034193587 -0.03999301 -0.06877716 -0.04696695 0.02826837 -0.12689292 0.061160263 -0.0035196822
-0.10469972 0.06492709 0.04614011 0.01636188 -0.07325732 0.043614537 -0.0585479 -0.36501393
0.009582046 -0.060008347 0.02670559 -0.045124043 -0.14954704 -0.055072136 0.043959714 0.013386269
0.016850527 -0.010992957 -0.09779426 -0.017741464 0.16797855 -0.0014714989 -0.07476013 -0.05942654
0.023392092 0.015829002 -0.15197995 0.018530158 -0.019843351 0.048813216 0.017940357 0.04653139
-0.008943969 -0.024013046 -0.009293325 0.0019161566 -0.03230582 -0.015209082 -0.050834406 0.009632098
-0.02958658 0.033630114 -0.19658996 0.06130861 -0.1116894 0.061182257 0.025242938 0.061651208
0.038826853 -0.2557788 0.010924273 -0.06763198 -0.03378368 0.054233536 0.03481729 0.04342783
-0.0078096753 0.051612265 0.079653546 -0.03058725 0.03982015 -0.10342854 -0.022151962 0.003687017
-0.019751186 -0.029397303 -0.010924309 -0.042341225 0.05910476 0.020092247 -0.059505686 0.025242819
0.0061920625 0.039986704 -0.067895785 -0.05003185 0.01105052 0.007933445 -0.035106253 -0.045458075
0.09200843 0.045248486 0.06956906 0.06636452 -0.038313217 -0.048575673 0.09989934 0.016166344
00000000: f4bc 74bd 0f19 9e3c f0e5 2abd 8967 503d
00000010: c15f 0f3d d2c5 933c b019 6abd 4cc4 cdbc
00000020: 4975 98bd 71f8 3f3c 5a16 1d3d 037c 043d
00000030: bf70 d2bc ef07 413d 1c11 423d efea 013d
00000040: aaeb 1e3d 6836 5fbc 8590 443c 6cec 14bb
00000050: 0c31 9bbd 340c 513d 2ec6 6e3d 888d 80bd
00000060: e9f2 b13c e851 ed3c 8a80 81bc 990e 0d3d
00000070: 7871 15bd 7a22 8d3c 5e0b 3a3d b9a3 0c3d
00000080: 69af f9bc 669a ecbc 6777 91bc 08be 8dbd
00000090: b002 fd3c 67eb 88bd e8ca 09bd 9967 a4bc
000000a0: caf2 883d 034e 4dbc ef0a 3b3d b43c 8f3c
000000b0: 002e 54bd 440b 77bd 1019 a1bc e2ea 6cbd
000000c0: 20b3 a8bc ca6b 3fbd 7394 92bd 9465 9abc
000000d0: 6c4f 453c e957 443d 516b 51bd ad10 493b
000000e0: e644 57bb 8af4 2bbd a602 243d 9937 1fbd
000000f0: bcc7 b5bb d7a8 153d accb 3fbc bf70 36bd
00000100: 78b9 1fbd 500f 823d 1803 a4bd 59cd 45bd
00000110: 4546 14bd f457 293d 2a42 16bd 9eb5 5cbc
00000120: e5ed 42bd 8e02 c8bb 0fee fb3c 05af b4bb
00000130: 3a58 92bd 3826 fdbc b74e db3c 1576 d2bc
00000140: cf58 1bbd b3fb 5f3d 529e b939 8cd7 a1bd
00000150: 4b4f dd3c 32cc 7c3a 963c fe3c 30cf 63bd
00000160: aac8 24bd 3ff7 30bd a323 94bb 3d20 1dbd
00000170: 6ae1 24bd 90e0 5dbc ba64 a0bd ac14 f93b
00000180: 4ae1 7ebd 1855 66bd f321 7abd 1168 403d
00000190: e1e5 b5bc fe1e 9a3b 8e8c 33bd 7ac9 6dbc
000001a0: 62f7 a1bc 8bba cd3c 32b0 823d cd2e 45bc
000001b0: 2033 ba3b c4ae 5abc 766e 21bd 9d8d 83bd
000001c0: ef4a 8abd dbf6 87bd 8b34 d2bc c120 423c
000001d0: 5d51 103d 2865 023d bfee 04bd 937e 4fbd
000001e0: 7b35 3b3d 7894 3e3d e8a0 fc3c 543a 0d3d
000001f0: 0aa9 9b3c 62e5 f7bc f0b9 62bc e2b2 89bd
00000200: d4f1 053d cd23 0f3d 48b8 1dbe f4c4 99bc
00000210: 550d 983c 8481 07bd 7d15 ea3c 8cf1 96bd
00000220: 7653 e33c 9e40 a6bb b50a 2abb 5026 0b3d
00000230: 5d7d c0bb 32ca 8dbc be90 233d 35b1 aa3d
00000240: 3f72 40bd d2c9 43bd f639 91bd 030e de3c
00000250: 6c1a 723d 2bf6 743b d946 603b cb08 5dbd
00000260: 613c 4a3c e233 8f3d ece6 473d 3cee 4c3d
00000270: 69b1 20bd 51ec d1bc 9587 77bc 7f6e ce3b
00000280: 930e 0c3d b6cf 23bd 0adb 8cbd 6b60 40bd
00000290: 1293 e73c 38f0 01be 2f83 7a3d 78aa 66bb
000002a0: cf6c d6bd 7ff8 843d 69fd 3c3d 5909 863c
000002b0: ef07 96bd 28a5 323d eccf 6fbd 1be3 babe
000002c0: 04fe 1c3c 50cb 75bd aec5 da3c fdd3 38bd
000002d0: dc22 19be 5293 61bd 1a0f 343d 1552 5b3c
000002e0: 1e0a 8a3c ce1b 34bc 5b48 c8bd 8c56 91bc
000002f0: 9202 2c3e 4fdf c0ba d71b 99bd 3e69 73bd
00000300: c6a0 bf3c d3ab 813c a2a0 1bbe 8fcc 973c
00000310: 868e a2bc 5ef0 473d a8f7 923c b397 3e3d
00000320: ba89 12bc 02b7 c4bc 0843 18bc 8c27 fb3a
00000330: 1c53 04bd 832f 79bc bd37 50bd f2cf 1d3c
00000340: 8e5f f2bc bbbf 093d e14e 49be bd1e 7b3d
00000350: 6abd e4bd 3f9a 7a3d 47ca ce3c fa85 7c3d
00000360: e808 1f3d 70f5 82be b9fb 323c a382 8abd
00000370: c260 0abd fc23 5e3d 939c 0e3d 61e1 313d
00000380: 4ee8 ffbb 6267 533d 6621 a33d 1d92 fabc
00000390: 741a 233d 58d2 d3bd 0878 b5bc e1a1 713b
000003a0: 3dcd a1bc 9dd2 f0bc dffb 32bc fe6d 2dbd
000003b0: d517 723d 7f98 a43c 3cbc 73bd 07ca ce3c
000003c0: c9e6 ca3b 19c9 233d f20c 8bbd 32ee 4cbd
000003d0: 3e0d 353c 48fb 013c 93cb 0fbd 3f32 3abd
000003e0: ea6e bc3d 7a56 393d 397a 8e3d 1fea 873d
000003f0: 52ee 1cbd 49f7 46bd 0698 cc3d 486f 843c

bias f4 [128]
-0.062476434 -0.018272726 -0.018972445 -0.033105362 0.036894396 -0.0047830027 -0.0044383826 -0.011203937
0.0147668375 -0.028929522 -0.003658712 -0.019500863 0.046761997 0.044350773 -0.074822046 -0.034236908
-0.023095543 -0.03173208 0.024462523 0.06477922 0.113753535 -0.032241244 -0.02793183 0.022432327
0.016872212 0.03746259 -0.020806592 0.040657382 -0.009967595 0.07777876 0.040702287 0.044008944
-0.0766371 0.011766296 -0.0240931 0.11256074 -0.00881269 -0.047348827 0.040989596 0.0053152465
0.040725205 0.02786149 -0.07345756 -0.06802616 0.037615146 -0.06653132 -0.015447618 -0.04341482
-0.055821095 -0.040395726 0.045261614 0.0063182493 0.031984806 0.071734205 -0.017381217 -0.092145264
-0.027458383 0.03144273 -0.04131253 0.106138535 0.06999473 -0.0787858 -0.015921831 0.055687875
-0.014617292 0.050889526 -0.041718647 0.045607165 0.011386836 0.07745552 -0.03780727 -0.08028345
0.1273543 -0.07426342 0.031544533 -0.03019952 0.027335966 0.05386327 0.036029078 0.04946258
0.14417735 0.016426248 -0.06309142 -0.047709573 -0.027452556 -0.0834474 -0.035053626 0.024436349
0.11844981 0.12547868 0.021590296 -0.08086101 0.045651548 0.028038926 0.039167035 0.038869813
0.11383279 -0.012017253 -0.015863681 -0.029264454 0.0003783129 -0.0057826517 0.0049826233 0.031232495
0.013013374 -0.046322927 0.012124726 -0.058670357 0.09281227 0.120605774 -0.004503266 0.052994117
-0.08255929 0.020446321 -0.002065448 -0.068502784 0.062647276 -0.012131889 -0.017585322 -0.06875882
-0.05492015 -0.0060474593 0.047256712 0.024421878 0.149655 0.011957529 -0.08999985 -0.057685997
00000000: 4ae7 7fbd afb0 95bc 1a6c 9bbc 7d99 07bd
00000010: 941e 173d bcba 9cbb da6f 91bb b890 37bc
00000020: 9bf0 713c 9bfd ecbc 00c7 6fbb 46c0 9fbc
00000030: 8289 3f3d 28a9 353d 4d3c 99bd 003c 0cbd
00000040: dd32 bdbc 7ff9 01bd a165 c83c f8aa 843d
00000050: 9df7 e83d 650f 04bd 4bd1 e4bc 00c4 b73c
00000060: 9837 8a3c 5f72 193d 9672 aabc 5b88 263d
00000070: 204f 23bc 784a 9f3d 71b7 263d b942 343d
00000080: e9f3 9cbd 6cc7 403c e55e c5bc 3f86 e63d
00000090: 1a63 10bc d8f0 41bd b5e4 273d 852b ae3b
000000a0: 79cf 263d c83d e43c eb70 96bd 4d51 8bbd
000000b0: 5712 1a3d 9341 88bd 0218 7dbc bdd3 31bd
000000c0: a9a4 64bd fd75 25bd 3e64 393d 5109 cf3b
000000d0: 8002 033d 62e9 923d 0e63 8ebc a8b6 bcbd
000000e0: 67f0 e0bc 18ca 003d 5437 29bd 295f d93d
000000f0: 6659 8f3d 735a a1bd 806e 82bc f818 643d
00000100: 5e7d 6fbc 8971 503d 2ce1 2abd 94ce 3a3d
00000110: da8f 3a3c 00a1 9e3d ccdb 1abd a66b a4bd
00000120: 2a69 023e 6c17 98bd d734 013d fc64 f7bc
00000130: adef df3c bb9f 5c3d 3a93 133d 4699 4a3d
00000140: 3aa3 133e 5790 863c 1336 81bd 1d6b 43bd
00000150: 2fe4 e0bc 78e6 aabd 6494 0fbd bd2e c83c
00000160: d095 f23d 7c7d 003e 22de b03c 759a a5bd
00000170: 1efd 3a3d e4b1 e53c 9d6d 203d f435 1f3d
00000180: 2a21 e93d 03e4 44bc 8df4 81bc 02bc efbc
00000190: 4c58 c639 667c bdbb 4645 a33b 4adb ff3c
000001a0: 0c36 553c 1cbd 3dbd c9a6 463c 5450 70bd
000001b0: 5c14 be3d 2900 f73d 2290 93bb 5c10 593d
000001c0: d814 a9bd 0b7f a73c 785c 07bb 304b 8cbd
000001d0: 374d 803d d5c4 46bc 180f 90bc 6dd1 8cbd
000001e0: f4f3 60bd c429 c6bb 4190 413d 6410 c83c
000001f0: 293f 193e 83e9 433c d751 b8bd 2748 6cbd

weight f4 [4, 128]
-0.05332934 -0.040218096 -0.08865438 0.013383941 0.02013929 -0.01577559 -0.044527493 -0.023714662
-0.05031122 0.042618457 0.012376702 0.046556782 0.013226675 0.016666772 0.020353995 -0.021612829
0.02070171 -0.0031421164 -0.03797548 0.0020026264 0.027528677 -0.029130029 0.021123458 -0.0022546775
0.051422913 0.004140296 -0.03889116 0.009597207 -0.032068957 0.013626703 0.005058921 0.05589009
-0.0023468814 -0.05775356 0.024214404 -0.00769793 -0.020095207 -0.056183573 -0.0035910434 -0.014633367
-0.031746905 0.0124759395 -0.030967541 -0.03490899 0.02458038 -0.05131315 0.03680094 -0.014272534
-0.0024813775 0.1024046 0.03335729 0.0018107255 0.03430424 0.054714285 -0.021891503 0.00017238477
0.029194152 -0.056785885 0.026217435 0.05009418 0.06371792 -0.00992358 0.007401552 -0.007915971
-0.013916925 0.013451306 -0.020489072 0.008680283 -0.030710151 0.008714708 -0.0680164 -0.0016733354
0.054649156 -0.06839719 0.009956766 0.08934236 0.0077245 0.008814596 0.005493713 -0.041657295
0.054534145 -0.0048617558 0.040074978 0.00020475575 -0.016658114 -0.053344227 0.0009962288 0.0467954
0.013406927 0.01961416 0.05316882 0.031946857 -0.008398788 0.009626346 0.023993058 -0.067578904
0.061636917 0.029953327 0.02338539 -0.03742814 0.0040437505 0.035402913 -0.022328591 -0.01540596
0.039223805 -0.0062614377 -0.073707916 -0.035592977 0.064033516 0.06590926 0.03797172 -0.012452985
-0.020456096 -0.041282028 0.012876434 0.035902902 0.062485076 -0.034064747 0.023006054 -0.024544038
-0.050806027 0.0355712 -0.03308032 0.034441356 0.08102497 0.025800863 0.040867075 -0.05089071
0.0052954415 -0.039017178 -0.057527147 -0.028840844 0.011810581 0.019909453 0.008670279 -0.035456862
-0.025060456 0.051004823 -0.047065273 0.0065604006 0.019803692 0.0027480712 -0.06593252 -0.020744927
0.013418447 -0.028319351 -0.022997584 0.0036713516 0.08130352 -0.03457182 -0.036253557 0.019997904
0.010908174 0.054072414 -0.060904574 -0.022505062 0.023104886 0.075749315 0.036865 0.059482403
0.028677385 -0.0068636285 -0.009065806 0.110662825 -0.028174095 0.00023049275 0.04484818 0.035506606
-0.038072336 0.028629389 -0.015865354 0.023454262 0.06044774 0.04339211 -0.032720204 0.023730593
0.066879906 -0.012339234 0.04982977 0.012084768 0.012166753 0.037120476 0.02731518 0.001346795
-0.020182539 0.0529012 -0.018749146 0.05228413 -0.025731763 -0.05678415 0.05206256 0.042184718
-0.030778298 0.013095455 -0.055582814 0.0472874 0.033413067 0.019654224 -0.011243783 -0.013402359
0.03265841 -0.0021287592 0.035037324 0.0016700792 0.020033356 -0.0085470285 -0.01632204 0.009792615
0.037018392 0.020305395 0.015290692 -0.024265459 -0.022379652 -0.002975135 -0.009780846 0.04843028
0.039469246 0.057828784 -0.04669512 -0.04131467 -0.03430352 -0.0025633946 0.041244075 0.01944144
0.04368822 -0.03890645 0.03093568 0.059247255 0.0063846894 -0.016117554 -0.028437305 0.0014431399
-0.037334647 -0.04846761 0.0050072526 0.007613681 0.063902676 0.043000296 0.020924883 0.04153301
-0.055737946 -0.007903153 0.021941379 -0.015204604 0.010700123 -0.037280608 0.0042919973 -0.021845972
0.022156177 -0.05685022 0.037568517 0.04957144 0.025325492 -0.0014572483 -0.051341634 -0.026657684
00000000: de6f 5abd bbbb 24bd 6d90 b5bd 5148 5b3c
00000010: 27fb a43c cf3b 81bc 7662 36bd 4045 c2bc
00000020: 2313 4ebd b190 2e3d a7c7 4a3c 53b2 3e3d
00000030: b2b4 583c c188 883c 6cbd a63c 630d b1bc
00000040: a296 a93c f7eb 4dbb 2d8c 1bbd 7f3e 033b
00000050: d283 e13c 19a2 eebc 1a0b ad3c 36c3 13bb
00000060: d5a0 523d 52ab 873b 564c 1fbd 9b3d 1d3c
00000070: bd5a 03bd 8942 5f3c 4ec5 a53b 02ed 643d
00000080: 23ce 19bb ff8e 6cbd 495d c63c eb3e fcbb
00000090: b49e a4bc bf20 66bd b657 6bbb cac0 6fbc
000000a0: 0b09 02bd e267 4c3c a4af fdbc bbfc 0ebd
000000b0: cb5c c93c bd2d 52bd 95bc 163d 59d7 69bc
000000c0: 9b9e 22bb 81b9 d13d a7a1 083d de55 ed3a
000000d0: 9a82 0c3d 161c 603d cf55 b3bc 2fc2 3439
000000e0: 9328 ef3c 5198 68bd f2c5 d63c 8e2f 4d3d
000000f0: 8a7e 823d 8396 22bc b888 f23b fdb1 01bc
00000100: d003 64bc de62 5c3c b3d8 a7bc bf37 0e3c
00000110: db93 fbbc 22c8 0e3c 2f4c 8bbd d253 dbba
00000120: cbd7 5f3d d313 8cbd b421 233c 21f9 b63d
00000130: cd1d fd3b 186b 103c 9b04 b43b d7a0 2abd
00000140: 325f 5f3d 5d4f 9fbb a925 243d b4b3 5639
00000150: 9976 88bc 7a7f 5abd e493 823a 89ac 3f3d
00000160: baa8 5b3c e0ad a03c 8cc7 593d b5da 023d
00000170: 129b 09bc d2b7 1d3c 178d c43c cf66 8abd
00000180: fe76 7c3d ae60 f53c b892 bf3c 404e 19bd
00000190: 7081 843b a502 113d 73ea b6bc 4869 7cbc
000001a0: 24a9 203d bf2c cdbb 2df4 96bd f1c9 11bd
000001b0: 0124 833d 6ffb 863d 3c88 1b3d 9b07 4cbc
000001c0: 8b93 a7bc 5817 29bd aef7 523c ec0e 133d
000001d0: 5af0 7f3d 7a87 0bbd 3177 bc3c 9410 c9bc
000001e0: fb19 50bd 1bb3 113d 3b7f 07bd 6112 0d3d
000001f0: 6bf0 a53d 555c d33c 3c64 273d c772 50bd
00000200: 6285 ad3b 7ad0 1fbd 96a1 6bbd a243 ecbc
00000210: 2b81 413c 2619 a33c c90d 0e3c 373b 11bd
00000220: 964b cdbc 6fea 503d 84c7 40bd a1f8 d63b
00000230: 5a3b a23c fc18 343b a107 87bd 44f1 a9bc
00000240: 0cd9 5b3c fcfd e7bc 6e65 bcbc 0f9b 703b
00000250: 7682 a63d 2e9b 0dbd 9c7e 14bd a5d2 a33c
00000260: 33b8 323c 097b 5d3d 1377 79bd 895c b8bc
00000270: 7546 bd3c 7522 9b3d c1ff 163d d2a3 733d
00000280: d6ec ea3c 4ae8 e0bb bf88 14bc 31a3 e23d
00000290: 5ccd e6bc 6db0 7139 bab2 373d 606f 113d
000002a0: bdf1 1bbd 2e88 ea3c 0ff8 81bc 2723 c03c
000002b0: 0d98 773d edbb 313d 9f05 06bd a966 c23c
000002c0: 55f8 883d 802a 4abc 4d1a 4c3d 31ff 453c
000002d0: 1057 473c a40b 183d 16c4 df3c f186 b03a
000002e0: da55 a5bc eeae 583d cf97 99bc e227 563d
000002f0: 6bcb d2bc 7f96 68bd 8d3f 553d e2c9 2c3d
00000300: c522 fcbc 528e 563c ceaa 63bd 6fb0 413d
00000310: 24dc 083d e501 a13c d837 38bc 9195 5bbc
00000320: d3c4 053d a782 0bbb 4c83 0f3d 8fe6 da3a
00000330: fe1c a43c d608 0cbc cdb5 85bc 3471 203c
00000340: 99a0 173d 8057 a63c d085 7a3c 5bc8 c6bc
00000350: 8855 b7bc 7cfa 42bb d73f 20bc d45e 463d
00000360: 81aa 213d e0dd 6c3d 6243 3fbd 9239 29bd
00000370: d981 0cbd a0fe 27bb 8cef 283d a843 9f3c
00000380: 6bf2 323d 5f5c 1fbd d36c fd3c 40ad 723d
00000390: a836 d13b f608 84bc 5af5 e8bc bd27 bd3a
000003a0: 37ec 18bd f985 46bd e113 a43b 2f7c f93b
000003b0: 68df 823d 1421 303d a96a ab3c 841e 2a3d
000003c0: 794d 64bd 3a7c 01bc 68be b33c bb1c 79bc
000003d0: 924f 2f3c 8db3 18bd e2a3 8c3b 53f6 b2bc
000003e0: df80 b53c c7db 68bd 72e1 193d 6c0b 4b3d
000003f0: 6877 cf3c 2401 bfba 9b4b 52bd 3761 dabc

bias f4 [4]
0.1498457 0.09900606 0.15427512 0.12420482
00000000: 2771 193e b0c3 ca3d 4cfa 1d3e 195f fe3d
