policies/policy3.pth (torch, 152896 bytes, 8 tensors)

weight f4 [128, 28]
0	0x3e05c451	0.1306317
1	0x3c4ee84b	0.012628625
2	0x3ec779bc	0.38960063
3	0x3f55421f	0.8330402
4	0xbe7b0407	-0.24513255
5	0xbeecc57e	-0.46244425
6	0x3dba05ad	0.09083114
7	0x3e116d4d	0.14201851
8	0xbd15a5dc	-0.03653513
9	0x3e5231b7	0.20526777
10	0xbe3d7497	-0.18501507
11	0x3c4ca04a	0.012489388
12	0xbe44ed07	-0.19231044
13	0x3c27f2b1	0.010250733
14	0xbc9e5bed	-0.019330943
15	0xbc462099	-0.012092733
16	0xbe08903b	-0.1333627
17	0xbddd72c1	-0.10812903
18	0x3c15bcb4	0.009139229
19	0xbc032658	-0.008004747
20	0xbd7966c1	-0.06088901
21	0xbcfb7b60	-0.030698478
22	0x3d626727	0.055274155
23	0x3c91b4f6	0.017786484
24	0x3d97392c	0.073839515
25	0x3dc60db6	0.09670584
26	0xbd075d51	-0.033047978
27	0x3da859b7	0.08220237
28	0xbcdb7bc1	-0.026792409
29	0x3e18e56e	0.1493127
30	0xbf0ef8bd	-0.55848294
31	0x3f43c4d1	0.76472193
32	0x3e660c58	0.22465646
33	0xbf0aa65d	-0.541601
34	0xbd058a17	-0.032602396
35	0xbd8f17d6	-0.06986968
36	0x3d2512bb	0.040301066
37	0xbe00ef56	-0.125913
38	0xbe44aeec	-0.19207352
39	0x3f0a89ba	0.54116404
40	0xbd84f515	-0.06492058
41	0x3e1a36da	0.15059987
42	0x3bd2ced8	0.006433349
43	0x3d7914d6	0.060810886
44	0x3d754ad4	0.059885815
45	0x3dcf61df	0.10126089
46	0xbc5950be	-0.013263879
47	0xbde49c12	-0.111625805
48	0xbdec5a21	-0.11540628
49	0xbd6de715	-0.058081705
50	0x3d986bca	0.07442434
51	0xbdb8c7b1	-0.09022463
52	0x3c035939	0.008016878
53	0xbd386fed	-0.045028616
54	0xba21388b	-0.0006150088
55	0x3d3d6902	0.04624272
56	0x3d1c0c01	0.038097385
57	0x3dc3bd00	0.09557533
58	0x3e53cc36	0.20683369
59	0xc025eab6	-2.5924506
60	0xc036325d	-2.846824
61	0x4056f955	3.358968
62	0x3db05ae5	0.08611087
63	0x3deabed7	0.11462181
64	0x3e09739b	0.13423006
65	0x3de1b96f	0.11021697
66	0x3e05c82e	0.13064644
67	0xbeddfe4e	-0.43358082
68	0x3f4bbb77	0.79582924
69	0xbfb0040a	-1.3751233
70	0x3d293a23	0.04131521
71	0xbdf0a374	-0.11749926
72	0xbd34b574	-0.04411836
73	0x3da4d643	0.0804868
74	0xbde40368	-0.11133462
75	0x3d4d8c17	0.05018243
76	0x3cf00902	0.02930117
77	0xbcde429b	-0.02713137
78	0xbd1b7a83	-0.037958633
79	0xbdebfd0a	-0.11522873
80	0x3d08d2f0	0.03340429
81	0x3d12e26f	0.035860475
82	0x3d3b0e5a	0.045667984
83	0xbd84e91d	-0.06489775
84	0xbdde2096	-0.10846059
85	0xbe10a7ed	-0.14126559
86	0x3d85d88e	0.06535445
87	0xbdaf733e	-0.085669026
88	0xbc866e77	-0.016410096
89	0x3de8c2ab	0.11365255
90	0x3bf4c2f1	0.007469528
91	0xbe1d3ba6	-0.15354785
92	0xbd901dae	-0.07036911
93	0x3c94580d	0.018108392
94	0xbdbb2107	-0.09137159
95	0xbd8e5391	-0.06949533
96	0x3df9e43d	0.12201736
97	0x3d83e042	0.06439258
98	0xbdc14c7e	-0.09438418
99	0x3d1c5ca3	0.038174283
100	0x3cdd6ea7	0.027030302
101	0xbdcb0c12	-0.099144116
102	0x3d4f9c10	0.050685942
103	0x3ddc001a	0.10742207
104	0xbd2a403c	-0.041565165
105	0xbc22ff35	-0.009948541
106	0x3e00aa80	0.1256504
107	0xbd6cddf1	-0.057828847
108	0x3b133886	0.002246411
109	0x3d870861	0.06593395
110	0xbd68c652	-0.056829758
111	0xbdb3fa12	-0.087879315
112	0x3c5ee5ad	0.013604564
113	0x3ca5aaf6	0.020223122
114	0xc0f6972b	-7.705953
115	0xbf8a429b	-1.0801576
116	0x407af3cf	3.921131
117	0x403c9e92	2.9471784
118	0x3d572a72	0.052530713
119	0x3de76bd3	0.11299863
120	0xbc06c3f1	-0.008225427
121	0x3d97eea2	0.074185625
122	0xc0117058	-2.272482
123	0xbdc75aeb	-0.09734138
124	0x3f5f4d27	0.872271
125	0x3f94105a	1.156749
126	0xbde35cab	-0.111016594
127	0xbcdcbd79	-0.026945816
128	0x3cc8f7be	0.024532195
129	0x3c2857d7	0.010274849
130	0x3d8c3147	0.068453364
131	0xbd21b15d	-0.039475787
132	0xbda0e523	-0.07856204
133	0x3d6f2780	0.05838728
134	0xbd7982df	-0.060915824
135	0xbc556a16	-0.013025781
136	0x3d8331eb	0.064060055
137	0xbd082e5f	-0.033247348
138	0x3c91e362	0.01780862
139	0x3d1c484d	0.03815489
140	0x3e04a963	0.12955241
141	0x3d7e0a03	0.062021267
142	0x401c867b	2.445708
143	0x40005875	2.005399
144	0xc00689b8	-2.1021557
145	0xbfee1182	-1.8599093
146	0xbd915555	-0.07096354
147	0x3e187be2	0.14891008
148	0xbc46a8e1	-0.012125225
149	0xbdb4944f	-0.0881735
150	0x3f287269	0.65799576
151	0x3e90c093	0.28271922
152	0xbe475549	-0.19466127
153	0xbea41b26	-0.32051963
154	0xbe095cee	-0.13414356
155	0x3d242b2b	0.04008023
156	0x3be5bbab	0.007010897
157	0xbe315d28	-0.17320693
158	0x3d857e2c	0.06518206
159	0xbb2ed56f	-0.002667751
160	0x3dc92e95	0.09823338
161	0x3d6a6845	0.057228345
162	0x3cefa934	0.029255487
163	0xbcff3650	-0.031153828
164	0x3d98a28b	0.074528776
165	0xbb30196c	-0.0026870621
166	0x3bb4f58a	0.0055224346
167	0xbdc5fa75	-0.096669115
168	0xbbe860ec	-0.007091632
169	0xbe67af29	-0.22625412
170	0x3ffa0f59	1.9535934
171	0xbfba4aa3	-1.4554027
172	0xbe885b6a	-0.26632243
173	0xbf982ed7	-1.1889294
174	0xbde5412e	-0.11194073
175	0xbca098f6	-0.019604187
176	0xbe117c51	-0.14207579
177	0x3c92438d	0.017854476
178	0x3f61ab0c	0.8815162
179	0xbf8a0871	-1.0783826
180	0xbf1206e8	-0.5704179
181	0x3edc40be	0.43018144
182	0x3e1cc09e	0.15307853
183	0x3e3214cc	0.17390746
184	0x3c7e5515	0.015523215
185	0xbc98de43	-0.01866067
186	0xbcf6deb2	-0.030135486
187	0x3de5b28f	0.11215698
188	0x3cb88f8b	0.022529384
189	0x3ae55592	0.0017496815
190	0xbc78f7ba	-0.015195781
191	0xbe234c18	-0.15946996
192	0x3a38d9e6	0.00070515124
193	0xbd1a0e3b	-0.037611227
194	0xbc93fff3	-0.018066382
195	0x3bbd1538	0.0057703517
196	0x3de4fd11	0.11181081
197	0x3d942190	0.07232964
198	0xbdac79f4	-0.08421698
199	0x3eb39605	0.35075393
200	0xbd40c198	-0.047059625
201	0xbd23895a	-0.03992591
202	0x3e0d38e4	0.13791233
203	0x3e0f40ff	0.13989638
204	0xbde4cbc9	-0.111716814
205	0xbac3a2b8	-0.0014925813
206	0xbe8ab629	-0.27092102
207	0xbec80350	-0.39065027
208	0xbcdee5f0	-0.027209252
209	0xbd0c119c	-0.03419648
210	0xbe03aa90	-0.12858033
211	0xbd9cd91c	-0.07658598
212	0x3d8ff378	0.0702886
213	0xbde801ca	-0.11328466
214	0x3da59fa5	0.080870904
215	0xbe1598f4	-0.14609128
216	0x3dac360b	0.084087454
217	0x3b1ac805	0.0023617756
218	0x3c95e1be	0.018296119
219	0x3e0f2e60	0.13982534
220	0x3d5c5b0f	0.053797778
221	0xbd4e431c	-0.05035697
222	0xbe216c0e	-0.15763876
223	0x3e01da44	0.12680918
224	0xbdeeabe9	-0.11653883
225	0xbd10cb2c	-0.03535001
226	0x3f0e92d0	0.5569277
227	0xbebcb94c	-0.3686012
228	0x3f30971a	0.6898056
229	0xbf461384	-0.7737353
230	0xbda744c4	-0.08167413
231	0xbddd0909	-0.10792739
232	0x3e2449bf	0.16043757
233	0xbe7dae24	-0.2477346
234	0x3e6a9227	0.22907315
235	0xbeac7d02	-0.33689123
236	0xbee0e58f	-0.4392514
237	0xbe24d270	-0.160959
238	0xbe409b0d	-0.18809147
239	0x3e7d041a	0.24708596
240	0x3d4a10c6	0.049332403
241	0xbdb7777b	-0.08958336
242	0x3d27fa7e	0.041010372
243	0x3e6a6fba	0.22894183
244	0x3e390d14	0.18071395
245	0xbe2390e3	-0.15973239
246	0x3d91ae5b	0.07113334
247	0xbd6dca1c	-0.058054075
248	0x3c88a2fd	0.016679281
249	0xbda64772	-0.08119096
250	0xbdfcef7a	-0.12350364
251	0xbe39851f	-0.18117188
252	0xbd5d2ad2	-0.053995915
253	0x3c9016c5	0.017588982
254	0xc01fa0a5	-2.49418
255	0x3f8359c2	1.0261767

bias f4 [128]
0	0x3d5f2c3d	0.05448555
1	0x3d97963c	0.07401702
2	0xbc521837	-0.012823156
3	0x3dac9e3e	0.0842862
4	0x3e26fddb	0.16307776
5	0xbc665751	-0.014058904
6	0xbd952cae	-0.072839126
7	0x3da47fa9	0.08032162
8	0xbd2f441f	-0.042789575
9	0x3c84d57e	0.016215082
10	0x3d2dccba	0.04243157
11	0x3d9506b0	0.07276666
12	0xbd55adae	-0.052167587
13	0xbc144194	-0.009048838
14	0x3e08a834	0.13345414
15	0xbd278944	-0.04090239
16	0xbe010b0e	-0.12601873
17	0x3d50dd1e	0.050992124
18	0xbd1c37f7	-0.03813931
19	0x3d1315ed	0.035909582
20	0x3d965fe2	0.07342507
21	0x3d0f4d79	0.034985993
22	0xbc62b05a	-0.013835991
23	0xbac87843	-0.001529463
24	0xbd02e7e9	-0.031959448
25	0xbda8fa60	-0.0825088
26	0xbdea7fcc	-0.114501566
27	0x3db8bbf4	0.09020224
28	0xbdd09699	-0.10184974
29	0x3dc45604	0.09586719
30	0xbce508f7	-0.027958376
31	0xbd927fcf	-0.07153284
32	0xbd37b950	-0.044854462
33	0xbe1353f4	-0.14387494
34	0xbb26e2e8	-0.0025464837
35	0xbd538652	-0.05164177
36	0xbd1d568f	-0.038412627
37	0x3d280eda	0.04102979
38	0x3dca235f	0.09870028
39	0x3e1c2b8f	0.15250991
40	0xbd93bbf6	-0.07213585
41	0xbdcd1e34	-0.100155264
42	0xbd519e8b	-0.05117659
43	0xbe30454a	-0.17213932
44	0xbd59932f	-0.05311888
45	0x3c6218dd	0.013799873
46	0x3bf80e8b	0.007570093
47	0xbd8b8176	-0.06811802
48	0x3dcf3b66	0.10118751
49	0x3e0bf3ca	0.13667217
50	0xbd8620c3	-0.065492176
51	0x3da44ddc	0.08022663
52	0x3d54bb0b	0.05193619
53	0xbc346070	-0.011009321
54	0xbd211b55	-0.039332706
55	0x3ceff480	0.029291391
56	0x3d24a056	0.04019197
57	0xbd1a940c	-0.037738845
58	0xbe076b75	-0.13224585
59	0xbd7e248d	-0.062046576
60	0x3dce65d4	0.10078016
61	0x3dcac7f2	0.09901418
62	0x3dbde1e0	0.09271598
63	0x3d1d3174	0.03837724
64	0x3e147efa	0.14501563
65	0x3bef035d	0.007294102
66	0xbdb0f448	-0.08640343
67	0x3c8a9e9f	0.01692134
68	0xbcd57a17	-0.026059194
69	0x3d7c60a3	0.061615597
70	0xbdb90e75	-0.090359606
71	0x3d98ee69	0.07467348
72	0x3cb89f8f	0.022537021
73	0x3e100e2e	0.14067909
74	0x3d5c5ddc	0.05380045
75	0xbdd03bba	-0.10167642
76	0x3dff4799	0.12464828
77	0x3de519e2	0.111865774
78	0xbdbf4936	-0.09340136
79	0x3d5c0db1	0.053723995
80	0x3d6020b8	0.054718703
81	0x3d830563	0.06397512
82	0xbe120544	-0.14259821
83	0x3e0da260	0.13831472
84	0xbd30373f	-0.043021437
85	0x3dc110a3	0.09427001
86	0xbdafaa41	-0.08577395
87	0xbdff463a	-0.124645665
88	0xbe0d2b5a	-0.13786069
89	0xbd7d204d	-0.061798383
90	0x3dfcb74c	0.123396486
91	0xbca73eeb	-0.020415744
92	0xbde404fc	-0.11133763
93	0xbd145472	-0.036213346
94	0x3d8f7b56	0.07005946
95	0xbc26457b	-0.010148401
96	0x3d0ffc14	0.03515251
97	0xbd3fa343	-0.046786558
98	0x3cbef717	0.023311181
99	0x3c6700ef	0.014099344
100	0xbd1e41bd	-0.03863691
101	0x3de77f97	0.11303633
102	0x3db11d8c	0.08648214
103	0xbd17dfa0	-0.0370785
104	0xbe0bb33d	-0.13642593
105	0xbd853dce	-0.06505929
106	0x3d60eb3b	0.054911833
107	0xbe01a558	-0.1266073
108	0xbd837222	-0.064182535
109	0xbc5891bd	-0.01321834
110	0xbbc34764	-0.005959438
111	0x3c37e39d	0.011223701
112	0x3c0104fb	0.007874723
113	0xbd9323b6	-0.07184546
114	0xbdc241ca	-0.094852045
115	0x3d5a2a23	0.05326284
116	0xbd83819b	-0.06421205
117	0xbdcb061e	-0.09913276
118	0x3dddfa36	0.108387396
119	0xbde318be	-0.110887036
120	0x3d1bc675	0.03803106
121	0x3ce25721	0.027629437
122	0x3bd56bb1	0.006513082
123	0x3dc93b73	0.09825792
124	0xbda7632a	-0.08173211
125	0xbd8ca4c9	-0.06867368
126	0xbdf0ca25	-0.11757306
127	0x3deb9402	0.115028396

weight f4 [128, 128]
0	0x3ce539db	0.02798169
1	0xbd3802bf	-0.044924494
2	0xbd669a3f	-0.056299444
3	0x3d073776	0.033011876
4	0xbd9ec52e	-0.07752453
5	0xbcfb8e1c	-0.030707411
6	0xbacd0dfa	-0.0015644424
7	0x3d550c7f	0.05201387
8	0x3d0e064c	0.034673974
9	0xbd2e30d8	-0.04252705
10	0x3d0518b4	0.03249426
11	0xbc8de3f2	-0.017320607
12	0xbda1c41c	-0.07898733
13	0x3d85621c	0.065128535
14	0xbd3d2067	-0.04617348
15	0x3d5b3038	0.05351278
16	0x3c5a2c4b	0.013316224
17	0xbd37330a	-0.04472641
18	0x3d35f45c	0.044422492
19	0xbd521ea6	-0.05129876
20	0xbd7b1197	-0.06129607
21	0xbd4f2f3b	-0.05058215
22	0x3d0ee8d2	0.034890004
23	0xbba0adeb	-0.004903545
24	0xbd9c2773	-0.07624712
25	0x3d226a9d	0.039652456
26	0xbd899d89	-0.067195006
27	0x3d5a9303	0.053362858
28	0xbbabeb41	-0.0052465503
29	0x3d16f6e1	0.036856536
30	0x3d2adf4d	0.041716862
31	0xbba4326e	-0.0050108945
32	0x3d4d5b90	0.05013615
33	0x3d40990e	0.047020964
34	0xbc4874b5	-0.012234856
35	0xbd92c403	-0.071662925
36	0x3c18172b	0.009282867
37	0x3d5f837d	0.054568756
38	0x3d6049b2	0.05475778
39	0x3c9799ba	0.01850592
40	0xbd6cbc84	-0.05779697
41	0x3d24a0c7	0.04019239
42	0x3d1e57d2	0.03865797
43	0xbd59aa26	-0.05314078
44	0x3d71fb7b	0.05907772
45	0xbd51410a	-0.051087417
46	0x3cd1dbb3	0.025617456
47	0xbca55382	-0.020181421
48	0x3d7a5eb3	0.06112547
49	0x3d2b8614	0.041875914
50	0x3d21589e	0.039391153
51	0x3d1abae8	0.037775904
52	0x3d2458c0	0.0401237
53	0xbd8c4ff7	-0.068511896
54	0x3d5da84c	0.05411558
55	0x3bb35f37	0.005473997
56	0xbd3433d1	-0.04399473
57	0xbd01a158	-0.03164801
58	0xbc232b39	-0.009959036
59	0xbd9df446	-0.07712607
60	0xbb300dbd	-0.0026863657
61	0x3ca22520	0.019793093
62	0x3d331aa2	0.04372657
63	0xbc12ef7f	-0.008968233
64	0x3cf5a053	0.029983675
65	0xbc1dfc8c	-0.009642731
66	0x3d712567	0.05887356
67	0xbd4a9f2b	-0.0494682
68	0x3c2a1154	0.010380108
69	0x3cc17e3c	0.023619764
70	0xbcfc2f68	-0.030784324
71	0xbb885078	-0.0041599832
72	0x3ceca958	0.028889343
73	0x3cb1afb7	0.021690233
74	0xbd50960b	-0.050924342
75	0xbd303a66	-0.043024443
76	0x3c723e80	0.014785409
77	0xbd9ee222	-0.07757975
78	0x3d578c82	0.052624233
79	0xbd64794d	-0.055779744
80	0xbbb9402e	-0.005653403
81	0x3c794941	0.015215219
82	0x3d6110b7	0.05494758
83	0xbbdbee42	-0.006711752
84	0xbc382cbe	-0.011241136
85	0xbd85e44b	-0.06537684
86	0x3d3c7c6d	0.0460171
87	0x3cec12a4	0.028817482
88	0xbd15ce30	-0.03657359
89	0x3b7cb9e2	0.0038562943
90	0x3cff3278	0.031151995
91	0x3d84c28c	0.06482419
92	0xbd6c656c	-0.05771391
93	0xbd2af407	-0.04173663
94	0x3d5ea16b	0.05435316
95	0xbb31b40c	-0.0027115373
96	0xbd33b365	-0.043872256
97	0x3d2fd721	0.042929772
98	0xbd64e8fa	-0.055886246
99	0x3c8ad7cf	0.016948609
100	0x3c954f5c	0.018226318
101	0xb9476f38	-0.00019019551
102	0xbc76b3c8	-0.015057512
103	0xbd884031	-0.066528685
104	0xbc68c638	-0.014207415
105	0x3ce38cab	0.027777037
106	0x3c4356f8	0.01192259
107	0xbd4e8c3c	-0.050426707
108	0x3d297c58	0.04137835
109	0x3cf8d310	0.03037408
110	0xbd71149a	-0.058857538
111	0x3c605bd2	0.013693767
112	0x3d89727c	0.06711289
113	0x3c2e0e45	0.010623519
114	0xbda37912	-0.07982077
115	0x3d0c479d	0.034247983
116	0x3d60c87a	0.05487869
117	0xbcc13aca	-0.023587603
118	0xbccc14c9	-0.024912255
119	0xbd09a917	-0.033608522
120	0xbd55b14e	-0.052171044
121	0xbd662af3	-0.056193303
122	0xbd400b08	-0.04688552
123	0x3bce8efd	0.0063036666
124	0x3bfd6b0a	0.0077337073
125	0xbd8bdd15	-0.068292774
126	0xbd2a9203	-0.041643154
127	0xbc98b6f6	-0.01864193
128	0xbd4e5b71	-0.050380174
129	0x3c55c318	0.013047002
130	0x3d1aa1cf	0.03775197
131	0xbcd9f18c	-0.026604436
132	0xbda525ec	-0.08063874
133	0xbda591c3	-0.080844425
134	0x3d2c03de	0.041995876
135	0xbd8bb0fc	-0.068208665
136	0xbc0212b5	-0.00793903
137	0xbc6e8175	-0.014557232
138	0xbd689be5	-0.056789298
139	0xbabd3ba8	-0.0014437335
140	0x3d39b2da	0.04533658
141	0x3c50be0c	0.012740623
142	0xbda6bb85	-0.08141235
143	0xbcecd5b3	-0.028910493
144	0xbcfb9048	-0.030708447
145	0xbc926e62	-0.0178749
146	0xbb6b8b58	-0.003594121
147	0xbb87243d	-0.004124193
148	0xbc438f49	-0.011936017
149	0xbd609624	-0.054830685
150	0x3d1e5edc	0.038664684
151	0xbc0193a5	-0.007908736
152	0xbcabd4f8	-0.020975575
153	0x3d360a0d	0.04444318
154	0x3d482061	0.048859004
155	0x3d4a084d	0.049324322
156	0xbc81aa8a	-0.01582839
157	0xbd190da1	-0.037366513
158	0x3cc61a18	0.024182364
159	0x3d892fe6	0.06698589
160	0xbc83814c	-0.016052864
161	0x3cc1b532	0.023645971
162	0x3d03e833	0.032203864
163	0xbd9bc046	-0.076050326
164	0x3c04487a	0.00807392
165	0x3d3e6f8e	0.046493106
166	0xbc17f50d	-0.009274733
167	0x3bf816a1	0.007571057
168	0x3a0004c2	0.00048835215
169	0x3d19f6f3	0.037589025
170	0x3cae8938	0.021305665
171	0x3d36a33b	0.044589262
172	0x3d5c6292	0.05380494
173	0xbb9044ef	-0.004402749
174	0xbd68c828	-0.05683151
175	0xbcb415d0	-0.021983057
176	0x3d2d47f5	0.04230495
177	0xbd5559ac	-0.05208747
178	0x3d1918b1	0.037377063
179	0xbd4b9697	-0.04970416
180	0xbce5b7a7	-0.028041674
181	0xbd113e60	-0.035459876
182	0xbcd15b94	-0.025556363
183	0x3d49feec	0.049315378
184	0xbd883155	-0.06650034
185	0x3cd51d61	0.026014986
186	0x3c66714e	0.0140651
187	0xbcd8e54a	-0.026476521
188	0xbd1ee5c6	-0.038793348
189	0xbd50c83b	-0.050972205
190	0x3c4b53b6	0.012410095
191	0xbd482a50	-0.048868477
192	0x3cda14f6	0.026621323
193	0xbd370065	-0.04467811
194	0xbccc806c	-0.02496358
195	0xbce19198	-0.027535245
196	0x3d2acae8	0.041697413
197	0xbd742108	-0.059601814
198	0xbd615200	-0.055009842
199	0x3d54c5a6	0.051946305
200	0xbd84c768	-0.06483346
201	0x3d1f7603	0.038930904
202	0x3cecf879	0.028927075
203	0xbcd78d1e	-0.026312407
204	0x3c18be2c	0.009322684
205	0xbd12d4cf	-0.03584748
206	0xbc00b5fb	-0.0078558875
207	0x3d24ad3d	0.040204275
208	0xbca6b051	-0.020347746
209	0xbc51a379	-0.012795323
210	0x3d15bef9	0.03655908
211	0x3cadbeff	0.021209238
212	0x3d232bec	0.03983681
213	0x3c322696	0.010873457
214	0x3ae82097	0.0017709908
215	0x3ceb69df	0.028737007
216	0xbd14d118	-0.03633222
217	0xbd9d8f1d	-0.07693312
218	0x3d4effce	0.050536923
219	0xbd01537c	-0.031573758
220	0xbbecd4cb	-0.0072275153
221	0x3d7bca72	0.061472364
222	0xbbfeac18	-0.00777198
223	0x3c885444	0.016641743
224	0xbd101537	-0.035176482
225	0x3d212e6d	0.039350916
226	0x3d576188	0.052583247
227	0xbcce908a	-0.025215406
228	0x3d5e90af	0.0543372
229	0xbd3af635	-0.045644958
230	0x3d088263	0.03332747
231	0x3c839bed	0.016065562
232	0xbd65443e	-0.055973284
233	0xbd2dc343	-0.042422544
234	0xbd727448	-0.059192926
235	0x3d8227ed	0.063552715
236	0x3d889aac	0.06670126
237	0xbd6e6eca	-0.058211125
238	0xbd72fcb6	-0.059323035
239	0x3d41c812	0.047309943
240	0xbc53d4a7	-0.012929118
241	0xbc2c71c2	-0.010525169
242	0xbd1a4497	-0.03766307
243	0xbd1418bf	-0.036156412
244	0xbcfc2df8	-0.030783638
245	0xbd248710	-0.04016787
246	0xbc150959	-0.009096467
247	0xbd2535e4	-0.040334597
248	0xbce35729	-0.027751522
249	0xbd994082	-0.07483007
250	0x3c95f2ef	0.018304316
251	0xbd5d82f7	-0.054079976
252	0xbbb26e7e	-0.0054453006
253	0xb9f97932	-0.00047583279
254	0xbb06a920	-0.0020547584
255	0xbca12fd6	-0.01967613

bias f4 [128]
0	0x3c97a0ab	0.01850923
1	0x3ad311f2	0.001610337
2	0x3c38bee2	0.011275979
3	0xbbda55f5	-0.006663079
4	0xbd8efdaa	-0.06981976
5	0x3d70d29e	0.05879461
6	0xbd1e0316	-0.03857716
7	0xbd440a09	-0.047861133
8	0x3cba763a	0.022761453
9	0x3c552460	0.013009161
10	0x3d274135	0.04083367
11	0xbda63b7c	-0.081168145
12	0xbd3b9e93	-0.045805525
13	0x3c80a6c6	0.015704524
14	0xbca0c257	-0.019623918
15	0x3e18e066	0.14929351
16	0x3ca5fd13	0.020262277
17	0xbc58c619	-0.013230824
18	0xbcdebd40	-0.02718985
19	0xbd190406	-0.037357353
20	0xbaa4d381	-0.001257524
21	0x3caed936	0.021343809
22	0x3bcabe5f	0.006187245
23	0xbd9d465e	-0.07679437
24	0x3d630967	0.05542889
25	0xbd3b3f1c	-0.045714483
26	0x3d12e76b	0.03586523
27	0xbd722696	-0.05911883
28	0x3d38fe43	0.045164358
29	0x3d2ac46b	0.041691225
30	0xbcb4f172	-0.022087786
31	0x3c684a50	0.014177874
32	0xbba57b01	-0.0050500636
33	0xbd84d06a	-0.06485064
34	0xbd9304e4	-0.07178667
35	0xbc54654a	-0.012963602
36	0x3cc133c9	0.023584263
37	0xbc02dcdb	-0.007987226
38	0x3bc55d3a	0.0060230764
39	0xbca8be69	-0.020598607
40	0xbd32c913	-0.04364879
41	0xbd6c8c08	-0.05775073
42	0x3d0243fb	0.031803112
43	0xbb126e23	-0.0022343479
44	0x3ba49ece	0.005023814
45	0x3caa2ab5	0.020772317
46	0x3dd541ef	0.104129665
47	0x3ce7ea1e	0.028309878
48	0x3d057aa4	0.032587662
49	0x3db2671b	0.08711072
50	0x3cc823bb	0.0244311
51	0xbd03cf6a	-0.032180227
52	0xbba69d6c	-0.005084684
53	0xbb6fc2b4	-0.0036584558
54	0x3c64c766	0.013963556
55	0x3c0b4a6e	0.008501632
56	0x3c38db12	0.011282699
57	0x3d2cde0e	0.042203955
58	0x3b013e1b	0.0019720856
59	0x3c48691d	0.012232092
60	0x3d16bf34	0.03680344
61	0x3dcdf6fb	0.100568734
62	0x3d82a748	0.063795626
63	0xbd7eaa56	-0.062174164
64	0x3cc89bfa	0.024488438
65	0xbd4aaa60	-0.04947889
66	0xbd5a25c0	-0.053258657
67	0x3d1655fb	0.03670309
68	0xbd341324	-0.043963566
69	0xbc5650c2	-0.013080778
70	0x3d15f720	0.03661263
71	0x3afa60c8	0.0019102329
72	0xb9e4b46e	-0.0004362198
73	0x3cb1d842	0.021709565
74	0xbdb5fecf	-0.088864915
75	0xbcfa9b07	-0.0305915
76	0xbc9467fe	-0.018115994
77	0x3d76beb0	0.060240448
78	0x3d73ab3b	0.05948947
79	0x3d572d99	0.05253372
80	0x3c8b770a	0.017024536
81	0xbdaba7c6	-0.083816096
82	0xbd6db819	-0.058036897
83	0xbd11717a	-0.03550861
84	0xbd0760f9	-0.033051465
85	0x3a3f18f5	0.00072897907
86	0xbdc6e893	-0.09712329
87	0x3da2ea07	0.079547934
88	0xbbcd268c	-0.0062606987
89	0xbd533163	-0.05156077
90	0xbc8dcdcb	-0.017310044
91	0xbda9db1c	-0.08293745
92	0xbd95376f	-0.07285964
93	0xbd8cb782	-0.06870939
94	0x3db4bda7	0.08825236
95	0xbdb07670	-0.0861634
96	0xbb8ef6d6	-0.004362921
97	0x3c0899a1	0.008337409
98	0x3ce59e25	0.02802951
99	0x3dcc3956	0.099718735
100	0x3e16fcd0	0.14744878
101	0xbcb6a745	-0.022296557
102	0x3d220291	0.03955323
103	0x3c634eb9	0.013873749
104	0xbb8ef0f1	-0.0043622185
105	0x3b6689d7	0.0035177374
106	0xbd80685e	-0.062699065
107	0x3d185cf2	0.037198015
108	0x3b34460d	0.0027507574
109	0xbc952aab	-0.018208822
110	0x3d9be491	0.07611955
111	0x3defbb5b	0.11705657
112	0x3c15ddc1	0.0091471085
113	0x3cb64f5b	0.022254637
114	0x3c4dbb99	0.012556934
115	0x3cafe894	0.021473207
116	0xbda46680	-0.08027363
117	0xbd3907c9	-0.04517344
118	0x3c31e89c	0.010858681
119	0xbc1599eb	-0.009130935
120	0xbd32f460	-0.043690085
121	0x3d8bc0af	0.06823861
122	0xbbd8021b	-0.006592048
123	0x3d9464ca	0.072457865
124	0xbc87abce	-0.016561415
125	0xbce99995	-0.028515616
126	0x3d3490d3	0.044083428
127	0x3a31f238	0.00067881076

weight f4 [128, 128]
0	0xba678397	-0.0008831559
1	0x3d8dad34	0.069178015
2	0xbcc379e2	-0.02386183
3	0x3d2e0b41	0.0424912
4	0x3dba1271	0.09085549
5	0x3c9ecf6f	0.019386021
6	0x3d137de7	0.03600874
7	0x3d2e1003	0.04249574
8	0xbbbb6b34	-0.0057195667
9	0x3d4ab71c	0.049491033
10	0x3c84de6b	0.016219338
11	0x3d3d4f12	0.046217985
12	0x3cff43de	0.031160291
13	0x3d301332	0.042987056
14	0x3c0a476d	0.008439881
15	0x3da67ad4	0.08128896
16	0x3d030820	0.03199017
17	0x3ce99cce	0.028517153
18	0xbcc723cd	-0.024309063
19	0x3d159fbe	0.036529295
20	0x3dca1689	0.098675795
21	0x3d3596f7	0.044333424
22	0xbbf5e80b	-0.0075044683
23	0xbd49360d	-0.049123812
24	0x3c4246cd	0.0118577005
25	0x3ce0e0c8	0.027450934
26	0x3d02da7d	0.031946648
27	0x3cc998c4	0.024608977
28	0xbd21a035	-0.039459426
29	0x3d88a742	0.06672527
30	0xbc4626f6	-0.01209425
31	0xbd3d03e8	-0.046146303
32	0x3d503953	0.05083592
33	0x3d8f712c	0.07004008
34	0x3d3ee221	0.046602372
35	0xbc37e777	-0.011224619
36	0xbdc18c5e	-0.09450601
37	0x3d010d54	0.03150685
38	0xbd904f29	-0.070463486
39	0xbc3d57b3	-0.011556554
40	0xbcbedbbf	-0.023298142
41	0xbd70f181	-0.058824066
42	0xbc8bcaaa	-0.017064411
43	0x3c987d48	0.018614426
44	0xbe113acf	-0.1418259
45	0x3db517ea	0.08842452
46	0x3d2cd17e	0.042191975
47	0x3cf12776	0.029437762
48	0xbccc9db0	-0.024977535
49	0xbd307c65	-0.043087382
50	0x3d1fd382	0.03902007
51	0xbcb4874e	-0.022037175
52	0x3d3e5927	0.04647174
53	0xbce03e25	-0.027373383
54	0x3d578d02	0.05262471
55	0x3d939675	0.07206432
56	0x3c9a9bee	0.018873181
57	0x3da3a78b	0.07990941
58	0xbbcc9cee	-0.0062442934
59	0xbd365946	-0.04451873
60	0xbd8b438a	-0.067999914
61	0x3dc8d75f	0.09806704
62	0xbd2968e3	-0.041359793
63	0xbd12ef39	-0.03587267
64	0x3ce408d1	0.027836235
65	0x3ada1bc7	0.0016640358
66	0x3c494d11	0.0122864405
67	0xbcfaddeb	-0.030623397
68	0x3d4a4fe9	0.049392615
69	0xbd51202d	-0.051056076
70	0x3d5ce2bf	0.05392718
71	0x3d53f77a	0.051749684
72	0xbd5db2c2	-0.054125555
73	0xbd57cefb	-0.052687626
74	0xbad70b58	-0.0016406579
75	0x3cd8051f	0.02636963
76	0x3d63614b	0.055512708
77	0x3d917a50	0.071034074
78	0x3d85713e	0.0651574
79	0x3cab5bd6	0.020917814
80	0xbca0adb6	-0.019614082
81	0xbc8d8e29	-0.017279701
82	0x3d147694	0.036245897
83	0x3bc98cdb	0.0061508245
84	0xbd3d4077	-0.046204057
85	0xbb97632d	-0.004619977
86	0x3bf08ff9	0.0073413816
87	0xbcb91b1e	-0.022595938
88	0xbd76d3a7	-0.06026044
89	0x3ca38781	0.019962074
90	0x3c2de71f	0.010614186
91	0x3c614c33	0.0137510775
92	0xbc8f97ce	-0.01752844
93	0x3cbe9d7b	0.023268452
94	0x3d0c412a	0.034241833
95	0xbe3529e8	-0.17691767
96	0xbd3c4d09	-0.045971904
97	0x3ca010b3	0.019539213
98	0xbd992b2f	-0.0747894
99	0x3beb5d29	0.0071827364
100	0x3d6c6574	0.05771394
101	0x3d320c07	0.0434685
102	0xbc9865d1	-0.018603237
103	0xbc8244e8	-0.015901998
104	0x3d069e94	0.032866076
105	0xbc8604da	-0.016359735
106	0xbd85b1e6	-0.06528072
107	0xbd3014b5	-0.042988498
108	0xbcb6ae5b	-0.022299936
109	0xbd39ce30	-0.04536265
110	0x3cc71402	0.024301533
111	0x3cd3730f	0.0258117
112	0xbc6fa63e	-0.014627038
113	0x3d7123aa	0.058871903
114	0xbd0e5d2a	-0.034756817
115	0xbc995bba	-0.018720496
116	0xbda8fb6a	-0.082510784
117	0x3c8ae8f2	0.01695678
118	0xbc8586f7	-0.016299708
119	0xbd31217b	-0.04324482
120	0x3c54afff	0.012981414
121	0x3d0a1d46	0.033719324
122	0xbb7a9da1	-0.0038240927
123	0xbd109ef2	-0.035307832
124	0xbd5b1b97	-0.05349311
125	0xbd85aae5	-0.06526736
126	0x3c4c44a8	0.012467541
127	0x3d592998	0.053018183
128	0xbd471b3f	-0.04860997
129	0xbcfacc7e	-0.030615088
130	0x3cacde0b	0.021101972
131	0x3b99b5bf	0.0046908553
132	0xbd37292c	-0.044717
133	0x3c82b29e	0.015954312
134	0xbc813c65	-0.015775869
135	0xbb2cc3ba	-0.002636178
136	0xbc1e99cf	-0.0096802255
137	0xbc78ae03	-0.015178206
138	0xbce05d89	-0.027388351
139	0xbb882ee6	-0.0041559814
140	0x3c83444b	0.016023776
141	0x3c60a85d	0.013712016
142	0x3d75935d	0.05995499
143	0xbc651b43	-0.0139835505
144	0x3ce632cb	0.028100392
145	0xbadbb6e2	-0.0016762877
146	0x3d678f83	0.056533348
147	0xbd8468a0	-0.06465268
148	0xbd346302	-0.044039734
149	0xbd6a546d	-0.05720942
150	0x3d77be43	0.060484182
151	0x3d15d83d	0.036583174
152	0x3d561d8b	0.052274268
153	0x3d39206e	0.045196943
154	0x3cafe556	0.02147166
155	0xbd106763	-0.035254847
156	0xbd33a363	-0.04385699
157	0xbb8be946	-0.0042697517
158	0x3c3ea355	0.011635621
159	0x3d6289e2	0.055307277
160	0xbd65c56c	-0.05609648
161	0x3cd70730	0.026248544
162	0xbd2b4b9c	-0.041820154
163	0xbd0ac737	-0.033881392
164	0x3d1b0d90	0.03785473
165	0x3d18767e	0.037222378
166	0xbdda02ab	-0.1064504
167	0x3c4bc604	0.012437347
168	0xbc593b62	-0.013258787
169	0xbcb91000	-0.022590637
170	0xbcbba195	-0.022904197
171	0xbc9f59e4	-0.019452043
172	0xbc854caa	-0.016271908
173	0xbd2c993d	-0.042138327
174	0xbbe0911d	-0.0068532364
175	0xbc8b5230	-0.017006963
176	0xbd7235d8	-0.05913338
177	0xbcbe9217	-0.02326302
178	0xbd59acb7	-0.05314323
179	0x3d273277	0.04081961
180	0xbd28fbfb	-0.041255932
181	0x3c15da5d	0.0091463
182	0x3d4012cf	0.046892937
183	0x3d4e2b50	0.050334275
184	0x3d32ea58	0.04368052
185	0xbd514dfb	-0.05109976
186	0xbd1c1945	-0.038110036
187	0xbccb46db	-0.02481406
188	0x3d03ace3	0.0321473
189	0x3d14d2a2	0.036333688
190	0x3d54a4b1	0.051914874
191	0x3d6b9931	0.05751914
192	0xbc63c864	-0.013902757
193	0x3d2e4a2c	0.042551205
194	0xbcf50e8f	-0.029914169
195	0x3cd5163b	0.026011577
196	0x3b0b05ef	0.0021213253
197	0x39d4664d	0.0004051201
198	0xbd57d8f0	-0.052697122
199	0x3d794fdb	0.06086717
200	0x3d5b9de0	0.05361736
201	0x3d195e9b	0.03744374
202	0xbce0cbd7	-0.027440948
203	0xbd30260b	-0.04300503
204	0x3c77b65e	0.015119163
205	0xbce59c88	-0.028028741
206	0xbd593ec1	-0.053038362
207	0x3d717179	0.058946107
208	0xbd89f093	-0.06735339
209	0xba9a7de1	-0.0011786782
210	0x3d008375	0.031375367
211	0xbd957c5f	-0.072991125
212	0xbcb876df	-0.02251762
213	0x3d1a7575	0.037709672
214	0xbd8bdabe	-0.06828831
215	0xbd4cae03	-0.049970638
216	0x3b9c301f	0.0047664787
217	0x3d54d1e9	0.051958
218	0x3d22a893	0.039711546
219	0xbd3de7e0	-0.04636371
220	0x3c73174f	0.0148371
221	0xba57b0ba	-0.00082279334
222	0xbc3abb58	-0.011397205
223	0x3d601e83	0.0547166
224	0x3d1bd8a7	0.038048413
225	0xbbc4bf1b	-0.006004227
226	0xbd0c0016	-0.03417977
227	0xbd760e8c	-0.060072467
228	0xbd9f855c	-0.07789108
229	0xbd7d5be0	-0.061855197
230	0x3c48d22f	0.012257143
231	0xbd1e810f	-0.0386973
232	0x3d51323f	0.05107331
233	0x3c6decd0	0.0145217925
234	0x3d6907e7	0.056892302
235	0xbd7d5bde	-0.06185519
236	0xba269c16	-0.0006355656
237	0xbcf3d341	-0.02976382
238	0xbd783795	-0.060599882
239	0x3b74ed14	0.0037372755
240	0xba0fea38	-0.00054899184
241	0xbb711477	-0.003678588
242	0x3d7453a8	0.059650093
243	0xbd3348c3	-0.043770563
244	0xbd6a15a0	-0.05714953
245	0x3c2ee1ee	0.010673983
246	0x3d05cf6c	0.032668516
247	0x3d6b34d1	0.057423417
248	0x3d7ee31b	0.062228303
249	0x3d71c9c4	0.05903031
250	0x3c223fbd	0.009902892
251	0xbc167f97	-0.009185693
252	0xbcb505a7	-0.022097422
253	0xbd38bebd	-0.045103777
254	0x3d2c5f58	0.042083114
255	0x3d1eaacf	0.038737115

bias f4 [128]
0	0x3def5e90	0.11687958
1	0x3b00ed42	0.0019672667
2	0x3e1f216e	0.15540096
3	0x3d7093f0	0.058734834
4	0xbcd6d9e1	-0.02622694
5	0x3dce1415	0.10062424
6	0x3b8ad9be	0.0042373827
7	0x3d375ab4	0.044764236
8	0xbdd60d2b	-0.1045173
9	0x3e6f4cf0	0.23369193
10	0xbda1de55	-0.079037346
11	0x3cc6740f	0.024225263
12	0x3e1b3cbc	0.15159887
13	0x3e1e1ae6	0.15439948
14	0xbd32a194	-0.043611124
15	0xbccb5483	-0.024820572
16	0xbda3c593	-0.07996669
17	0xbdac22e2	-0.08405091
18	0xbd3397e5	-0.04384603
19	0x3e27a8ae	0.1637294
20	0xbc64b1b1	-0.013958381
21	0xbd5d5bd4	-0.054042652
22	0x3ca7a654	0.020465054
23	0xbd764c14	-0.060131148
24	0x3df02d9e	0.11727451
25	0x3e319eb2	0.17345694
26	0xbd2863df	-0.04111087
27	0x3dcdaeb7	0.1004309
28	0x3ce52923	0.027973717
29	0xbd1c8f96	-0.03822287
30	0x3d2facf8	0.042889565
31	0xbded64a9	-0.11591465
32	0x3d9ac6e4	0.075574666
33	0xbda7f010	-0.08200085
34	0x3de58fe1	0.11209083
35	0x3dfb821f	0.12280678
36	0xbd202a79	-0.039103005
37	0xbd93fce4	-0.072259694
38	0xbcd7829e	-0.0263074
39	0xbd63a6fb	-0.055579167
40	0x3e50fb74	0.20408422
41	0xbd00ce5a	-0.031446792
42	0x3cdb8987	0.026798977
43	0xbd06dc1a	-0.03292475
44	0xbde35d48	-0.11101776
45	0x3de14e3e	0.11001252
46	0x3d25d54b	0.040486615
47	0x3c8604dc	0.016359739
48	0x3c499584	0.012303714
49	0x3e1baff3	0.15203838
50	0x3d238e1c	0.039930448
51	0xbda49b3b	-0.0803742
52	0xbcebd8f9	-0.028789984
53	0x3d62b26e	0.055345945
54	0xbd14294a	-0.03617219
55	0x3c975a39	0.018475639
56	0xbb28dfdc	-0.0025768196
57	0x3d040b10	0.032237113
58	0xbd0f8d9d	-0.035047162
59	0xbd86421e	-0.065555796
60	0x3d3a8934	0.045541003
61	0xbdd5222d	-0.10406909
62	0x3b2d0c18	0.0026404914
63	0xbd2b969e	-0.041891687
64	0x3c8a1ed0	0.016860396
65	0x3d439dd3	0.047757935
66	0xbc994a0d	-0.018712068
67	0xbd29a124	-0.04141344
68	0x3e105410	0.14094567
69	0x3c13f8c0	0.009031475
70	0xbda13557	-0.07871502
71	0xbc79e673	-0.015252697
72	0xbd219659	-0.039450023
73	0x3e3c871b	0.18410914
74	0xbd9a87b6	-0.07545416
75	0x3d65383a	0.055961825
76	0x3dc8aa9d	0.09798167
77	0xbd329153	-0.043595623
78	0xbdd18817	-0.10231035
79	0x3caf4c2d	0.021398628
80	0x3def3981	0.1168089
81	0xbd0b3e2e	-0.033994846
82	0xbca62a18	-0.020283744
83	0x3d55dceb	0.052212637
84	0x3d0842e0	0.033266902
85	0xbd8cb89c	-0.06871149
86	0xbd3826a6	-0.044958733
87	0xbcf92363	-0.030412382
88	0xbb67f431	-0.0035393352
89	0x3d2de54d	0.042455006
90	0x3e3ec638	0.18630302
91	0xbd396ee8	-0.045271784
92	0xbd15f155	-0.036607105
93	0x3e12abaa	0.14323297
94	0x3ce73c8e	0.028227117
95	0xbdca5455	-0.09879366
96	0x3de1660e	0.110057935
97	0x3ccaa446	0.024736535
98	0xbd8d26ac	-0.06892142
99	0x3bc67165	0.006055998
100	0xbd95d9eb	-0.07316955
101	0x3c41570c	0.011800539
102	0xbb849932	-0.0040465826
103	0xbd38229d	-0.044954885
104	0x3cb226d1	0.021747025
105	0x3d51faa4	0.05126442
106	0xbd88831e	-0.066656336
107	0xbdc8a764	-0.09797552
108	0x3d828a5a	0.06374045
109	0x3e11ee6e	0.1425111
110	0x3d4f5d82	0.050626285
111	0xbdea53d0	-0.11441767
112	0x3bfd5b49	0.0077318293
113	0xbcfea566	-0.031084727
114	0xbcf2052f	-0.029543487
115	0xbb316c27	-0.002707252
116	0x3d26b17a	0.0406966
117	0xbcff57d0	-0.031169802
118	0xbcaa35ec	-0.020777665
119	0xbd4edafb	-0.050501805
120	0x3cafb64b	0.021449229
121	0x3d232903	0.039834034
122	0x3d77b247	0.060472753
123	0x3cb1de59	0.021712469
124	0xbc114401	-0.008866311
125	0x3de2a5ec	0.11066803
126	0x3dd8fa5f	0.105946295
127	0x3dc106fb	0.094251595

weight f4 [4, 128]
0	0x3c9c51c2	0.019081954
1	0xbcc0ba96	-0.023526471
2	0x3d7c6d92	0.061627932
3	0x3de5de24	0.112240106
4	0x3cec14fe	0.028818604
5	0xbc076cec	-0.008265715
6	0xbc445b50	-0.011984661
7	0xbc09c21b	-0.008408095
8	0xbc759a43	-0.014990392
9	0x3d855445	0.06510214
10	0xbafbab7a	-0.0019200884
11	0x3c9b0662	0.018923942
12	0x3ca09a8a	0.01960494
13	0x3dcf7e71	0.10131539
14	0xbd8146d2	-0.06312336
15	0xbe080189	-0.13281836
16	0x3d7dc959	0.0619596
17	0x3d8aed6c	0.06783566
18	0xbc6b7e00	-0.014373302
19	0x3da921ae	0.08258377
20	0x3d0479ba	0.03234265
21	0xbbc7ca86	-0.0060971407
22	0x3df6eb15	0.12056557
23	0x3d8b6d65	0.06807975
24	0x3bb2dc2e	0.0054583764
25	0x3dafaf81	0.085783966
26	0xbd48d105	-0.04902746
27	0x3d70dc1e	0.05880367
28	0xbc988def	-0.018622367
29	0xbcf691a8	-0.030098751
30	0x3d047fb6	0.032348357
31	0x3ccf02ad	0.02526983
32	0xbbebb16c	-0.007192781
33	0x3cfb58d3	0.030682003
34	0x3d0f2933	0.0349514
35	0x3c9b3404	0.018945701
36	0x3d0a247a	0.033726193
37	0xbd4c0784	-0.049811855
38	0x3b07fa9a	0.0020748735
39	0x3c942b61	0.01808709
40	0x3d8e1886	0.06938271
41	0xbd7b5865	-0.061363596
42	0xbd4f0541	-0.05054212
43	0xbd08897c	-0.03333424
44	0xbdacd392	-0.08438791
45	0x3cfab0ae	0.030601826
46	0xbbb50948	-0.005524788
47	0xbc9f0c98	-0.019415185
48	0xbb70a430	-0.0036718957
49	0x3d0ab5be	0.03386473
50	0xbde44f6c	-0.11147961
51	0x3d622f10	0.055220664
52	0xbc4484c5	-0.011994545
53	0xbd00f8ed	-0.031487394
54	0x3ca01c09	0.019544618
55	0xbcbef63d	-0.023310775
56	0xbd34edd7	-0.044172134
57	0x3d093aa4	0.03350319
58	0x3badee0f	0.00530792
59	0xbda5a436	-0.080879614
60	0xbd2ac22b	-0.04168908
61	0xbdc1e612	-0.094677106
62	0x3cb6a8e6	0.022297334
63	0xbcd621cc	-0.026139162
64	0xbba07811	-0.0048971255
65	0x3cabca4b	0.020970484
66	0xbcd068a3	-0.02544052
67	0x3d39ae64	0.045332327
68	0x3c7ac361	0.015305371
69	0xbd803aee	-0.0626124
70	0xbd91dcd2	-0.07122196
71	0xbd5864ee	-0.05283063
72	0x3d62c4ea	0.055363573
73	0x3dc477d8	0.09593171
74	0xbcd2dc8f	-0.025739936
75	0xbc82d396	-0.015970033
76	0xbd565aee	-0.05233281
77	0xbd0ca935	-0.034341056
78	0xbc2c0c21	-0.010500939
79	0x3d85e56d	0.065379
80	0xbc29382e	-0.010328336
81	0xbce9e72b	-0.028552612
82	0xbd37246b	-0.044712465
83	0xbcbb1910	-0.0228391
84	0x3d78b6d8	0.06072125
85	0xbd6b0975	-0.057382066
86	0x3b542bbf	0.0032374708
87	0x3de82c1c	0.11336538
88	0xba192ce6	-0.0005843177
89	0x3c088f0b	0.008334885
90	0x3dcf6032	0.1012577
91	0x3b7be966	0.0038438677
92	0xbde52002	-0.11187746
93	0x3da3180a	0.079635695
94	0xbd7842ed	-0.0606107
95	0xbd30f9f1	-0.043207113
96	0x3d3b2c80	0.045696735
97	0xbc14cbe4	-0.009081814
98	0xbd915bcb	-0.07097586
99	0xbd3fd20f	-0.046831187
100	0x3d90f3cc	0.070777506
101	0x3bcee4b1	0.0063138832
102	0xbd31f8bb	-0.0434501
103	0xbd1a8f4a	-0.037734307
104	0x3c8973c9	0.016778843
105	0x3c5537f6	0.01301383
106	0xbc83e3e2	-0.016099874
107	0xbd627de1	-0.05529583
108	0x3daf0285	0.085454024
109	0x3d754c44	0.059887186
110	0xbd5d146e	-0.05397456
111	0xbc6dbb93	-0.014510053
112	0xbd4adc3f	-0.04952645
113	0x3d139bd2	0.036037274
114	0x3d0fa3b0	0.035068214
115	0x3d692cf1	0.056927625
116	0xbd2db0ee	-0.04240506
117	0x3d372abd	0.044718493
118	0x3ccb84dd	0.024843628
119	0x3cc8a03b	0.024490466
120	0x3b976ccf	0.0046211253
121	0x3b1dc042	0.0024070893
122	0x3c0766e6	0.008264279
123	0x3d0de9d2	0.034646817
124	0xbd8db6ba	-0.06919618
125	0x3d9e587d	0.077317216
126	0xbba6d40e	-0.005091197
127	0x3cee6755	0.029102007
128	0x3d8da222	0.0691569
129	0xbd56d192	-0.052445956
130	0x3da1a002	0.07891847
131	0xbdd4ecff	-0.10396766
132	0x3bd0cb5c	0.0063718986
133	0x3a7be730	0.000960934
134	0x3c805120	0.015663683
135	0x3d8664f3	0.06562223
136	0xbd3b105c	-0.0456699
137	0x3db5d862	0.08879162
138	0x3d7376ac	0.059439346
139	0x3d641a4f	0.055689152
140	0x3d01b407	0.031665828
141	0x3dd72696	0.105054066
142	0x3c101daf	0.00879614
143	0x3d83ed81	0.06441785
144	0xbcae29eb	-0.021260222
145	0xbd7b1863	-0.061302554
146	0x3d21d239	0.039507125
147	0x3dd6da2b	0.10490831
148	0xba578d64	-0.0008222668
149	0x3d28af3f	0.041182753
150	0x3d8036e7	0.06260472
151	0xbd0a9dc5	-0.033841867
152	0x3cdbeb38	0.02684556
153	0x3ceee524	0.029161997
154	0xbd5364d7	-0.05160984
155	0x3d5b0d3e	0.053479426
156	0xbca5712b	-0.020195564
157	0xbc84d857	-0.01621644
158	0x3d295402	0.04133988
159	0x3c1f4758	0.0097215995
160	0xbd22bb3c	-0.039729342
161	0x3d3b1a70	0.04567951
162	0x3bd2ee80	0.006437123
163	0x3d3e4343	0.046450865
164	0x3c91a4ee	0.01777884
165	0xba821c80	-0.0009926707
166	0x3b8703f1	0.004120343
167	0x3ce4ecf7	0.027945025
168	0x3ce379f7	0.027768118
169	0xbd07b318	-0.03312978
170	0x3b862b7c	0.004094539
171	0xbd0573b4	-0.032581046
172	0xbcec78c6	-0.028866183
173	0x3d9d5609	0.076824255
174	0x3be5bd4c	0.0070110913
175	0xbc428993	-0.011873621
176	0xbd719069	-0.05897561
177	0x3da1d23d	0.07901428
178	0x3d1ecbad	0.03876846
179	0xbcd559e3	-0.026043838
180	0xbccab8ef	-0.024746386
181	0xbd61bbd7	-0.05511078
182	0xbd6b05a6	-0.057378434
183	0xbd17817b	-0.036988717
184	0xbd33b164	-0.043870345
185	0x3d2214a3	0.039570462
186	0x3cfe5192	0.031044755
187	0x3d2c433b	0.042056303
188	0xbbd3db0e	-0.0064653223
189	0xbd261401	-0.04054642
190	0xbd5add8d	-0.053433944
191	0xbc96cc2b	-0.018407902
192	0xbbf37ad2	-0.007430413
193	0xbd54a4ba	-0.051914908
194	0xbe000c51	-0.12504698
195	0xbc9fe14e	-0.019516613
196	0x3d7402b4	0.05957289
197	0x3b522bc5	0.0032069546
198	0x3dbbc7cd	0.09168968
199	0x3d81639c	0.06317827
200	0xbd1e5d26	-0.038663052
201	0x3c6ec151	0.014572457
202	0xbd8132eb	-0.0630854
203	0xbbb9f58e	-0.0056750244
204	0x3d8d58ab	0.06901678
205	0xbc4871eb	-0.012234191
206	0xbd79c8ae	-0.0609824
207	0xbdd35c0b	-0.1032029
208	0xbc8889df	-0.016667305
209	0x3d403a63	0.046930682
210	0xbdd7c26a	-0.105351284
211	0x3c5ba9ac	0.013407152
212	0x3bf7fc48	0.007567916
213	0xbd50d13c	-0.05098079
214	0x3bd76fde	0.006574615
215	0x3d0ee6db	0.03488813
216	0x3aa51517	0.0012594786
217	0x3cca9514	0.02472929
218	0x3dc7ae25	0.09750012
219	0xbcd71ff1	-0.026260348
220	0x3c76f3b8	0.0150727555
221	0x3d177dba	0.036985137
222	0x3d6123bd	0.054965723
223	0x3d1a76d6	0.037710987
224	0x3cf4ad1b	0.0298677
225	0xbb0363b1	-0.0020048434
226	0xbc845152	-0.016152058
227	0x3b6e2e3a	0.003634347
228	0x3cd41ce4	0.025892682
229	0xbcc32249	-0.02382006
230	0xbd73665f	-0.0594238
231	0x3d72d2de	0.05928313
232	0x3df06877	0.11738675
233	0xbcb7feee	-0.022460427
234	0xbc49824f	-0.012299134
235	0xbd220220	-0.039552808
236	0x3c07c50f	0.0082867285
237	0x3d35212a	0.04422108
238	0x3c273cdb	0.01020738
239	0x3ccdd9f1	0.025128337
240	0xbcbd8f8e	-0.023139741
241	0xbc563cf5	-0.013076057
242	0xbd3058b1	-0.043053333
243	0xbd61da4c	-0.055139825
244	0x3c8efef1	0.01745555
245	0xbd0330fa	-0.03202913
246	0x3d85ccee	0.06533228
247	0xbc1cea8b	-0.009577404
248	0xbc2bce02	-0.010486128
249	0x3c510947	0.01275856
250	0xbd9d964d	-0.07694683
251	0xbbbd42ac	-0.00577577
252	0x3cbc01cd	0.022950077
253	0x3d10573b	0.03523944
254	0x3cd27e0a	0.025694866
255	0x3c985bc2	0.018598441

bias f4 [4]
0	0x3e420e91	0.18950869
1	0x3e022214	0.12708312
2	0x3e06818a	0.13135353
3	0x3e55283a	0.20816126
