policies/policy.pth (torch, 86270 bytes, 6 tensors)

weight f4 [128, 28]
0	0x3e38806c	0.18017739
1	0xbe1106a1	-0.14162685
2	0xbd3de3a5	-0.046359677
3	0xbd70746a	-0.05870477
4	0xbd36f340	-0.044665575
5	0xbe3f242c	-0.18666142
6	0xbe165956	-0.14682516
7	0xbdf6928d	-0.12039671
8	0x3d8f406f	0.069947116
9	0xbdeee584	-0.116648704
10	0x3e09cf90	0.13458085
11	0xbdbc6dc1	-0.092006214
12	0x3e09e2cf	0.13465427
13	0x3d6198b5	0.055077273
14	0x3e3b0727	0.18264447
15	0x3cebbf26	0.02877767
16	0xbe0d3f8c	-0.13793772
17	0xbd8e9221	-0.069614656
18	0x3e1f0bff	0.1553192
19	0x3b35851c	0.0027697748
20	0x3e009713	0.1255763
21	0xbdcd8bcb	-0.10036429
22	0xbe17105c	-0.14752334
23	0x3d3eba54	0.046564415
24	0x3d22757e	0.03966283
25	0xbe130eed	-0.14361162
26	0xbd38ea2f	-0.04514521
27	0x3cdf0da6	0.027228188
28	0xbd534bde	-0.051586024
29	0xbdd0ed91	-0.10201562
30	0x3dd4bc43	0.103874706
31	0xbe344a5b	-0.1760649
32	0x3c29b4cd	0.010358048
33	0x3d375282	0.04475642
34	0xbde5e808	-0.11225897
35	0x3c4bf442	0.012448372
36	0xbb99682e	-0.0046816086
37	0x3cdb9800	0.026805878
38	0xbde12a73	-0.10994425
39	0x3e02f1eb	0.12787597
40	0x3e310ef8	0.17290866
41	0xbd647546	-0.055775903
42	0x3dd83c74	0.105584055
43	0x3c821c0f	0.01588252
44	0x3d3b279f	0.045692082
45	0x3d514041	0.051086668
46	0x3d20f6d4	0.039297894
47	0xbdb38d5b	-0.08767196
48	0x3d76d419	0.060260866
49	0xbd2d5252	-0.042314835
50	0x3e0f5a0f	0.13999198
51	0xbe314f33	-0.17315368
52	0xbe09503e	-0.13409516
53	0xbd8ffc9b	-0.070306025
54	0xbd95549f	-0.07291531
55	0xbd8e0381	-0.06934262
56	0x3dd32c1c	0.103111476
57	0x3db82905	0.08992199
58	0xbe20b600	-0.15694427
59	0xbe228da1	-0.1587434
60	0xbda90102	-0.08252145
61	0x3d603f5e	0.05474793
62	0xbd557854	-0.052116707
63	0x3e345d4b	0.17613713
64	0x3d950e1c	0.07278082
65	0x3e3853ff	0.18000792
66	0xbdf41e7d	-0.11919878
67	0xbd6afd48	-0.057370454
68	0xbe1c6c04	-0.1527558
69	0xbca1b6bc	-0.019740455
70	0xbd224734	-0.039618686
71	0xbcdd2d5e	-0.026999172
72	0xbdd0a54d	-0.101877786
73	0xbcb1c402	-0.02169991
74	0xbde1924c	-0.11014232
75	0xbdadb6ae	-0.08482109
76	0x3b9c6867	0.004773188
77	0xbdf3599f	-0.11882328
78	0x3bc3953d	0.0059687183
79	0x3d7605a1	0.060063962
80	0x3cec03fc	0.028810494
81	0xbe0cc032	-0.13745192
82	0x3c94e4f0	0.018175572
83	0x3c7a7f4f	0.015289142
84	0xbe2dd0b4	-0.16974145
85	0xbb11e1aa	-0.002225975
86	0xbe124518	-0.1428417
87	0x3da1719f	0.07883
88	0x3ca60892	0.020267759
89	0x3e16e574	0.14735967
90	0x3e25b6ce	0.16183016
91	0xbd0fffa3	-0.035155904
92	0x3c0ffba1	0.00878802
93	0xbd84b6ff	-0.06480216
94	0x3c98a8df	0.018635212
95	0x3d857598	0.0651657
96	0x3ba7b2ba	0.0051177414
97	0x3e43a916	0.1910747
98	0x3e0e0f0e	0.1387293
99	0x3e3a9b36	0.18223271
100	0x3dda9ea6	0.10674791
101	0x3e2f0529	0.17091812
102	0xbdfe39a9	-0.124133416
103	0x3bc792c9	0.006090496
104	0xbb15a2e8	-0.0022832695
105	0xbcefafbc	-0.029258601
106	0x3d89fbb6	0.06737463
107	0x3e1c8154	0.1528371
108	0x3e04b030	0.12957835
109	0x3cefdc6d	0.029279912
110	0xbe2d6685	-0.1693364
111	0xbcc26212	-0.023728404
112	0x3c01b359	0.007916295
113	0xbd6e5cf8	-0.05819413
114	0x3c9f0efe	0.019416329
115	0xbe267db2	-0.16258886
116	0xbe097a0a	-0.1342546
117	0xbdd43cbe	-0.10363148
118	0x3e1a2a0a	0.15055099
119	0x3dc61150	0.09671271
120	0xbe1c25be	-0.15248773
121	0x3de1a5ae	0.11017929
122	0xbe2dd3d8	-0.16975343
123	0xbdf67419	-0.120338626
124	0x3d1d4d2b	0.03840367
125	0x3d87abf3	0.066245936
126	0xbe253e42	-0.1613703
127	0x3d6d04e8	0.057866007
128	0xbd210706	-0.03931334
129	0x3d0de69d	0.034643758
130	0xbd4c3822	-0.04985822
131	0xbe2bb510	-0.16768289
132	0xba5d1415	-0.00084334734
133	0x3ce2092f	0.02759227
134	0xbe38067a	-0.1797122
135	0xbcce6937	-0.025196655
136	0xbe37b0f3	-0.17938595
137	0xbd914216	-0.07092683
138	0x3d965249	0.073399134
139	0x3d7d9bf8	0.06191632
140	0x3db3dd8c	0.08782491
141	0xbe2087fc	-0.15676874
142	0x3c929516	0.017893355
143	0x3e0bec45	0.13664348
144	0x3dcff7a9	0.10154659
145	0x3d95f3ce	0.07321893
146	0xbc11d50e	-0.008900894
147	0x3df215a2	0.118205324
148	0xbd522650	-0.05130607
149	0xbe0982dd	-0.13428827
150	0x3e4d416f	0.20044492
151	0xbd94053c	-0.07227561
152	0xbe353544	-0.176961
153	0xbe00d2c0	-0.12580395
154	0xbdbf3238	-0.0933575
155	0x3d77d971	0.060510103
156	0xbdeb8d3f	-0.1150155
157	0x3e305658	0.17220438
158	0xbe21a5ab	-0.15785854
159	0xbba42158	-0.0050088577
160	0x3de66a90	0.11250794
161	0x3da0f8fb	0.07859989
162	0x3dff1d0b	0.124567114
163	0xbdaa9dd4	-0.083308846
164	0x3e107073	0.14105396
165	0xbcefa1fb	-0.029252043
166	0x3ddf98ac	0.10917792
167	0x3e0c81c4	0.13721377
168	0xbde4b591	-0.111674435
169	0xbd0fb309	-0.03508285
170	0xbe3fc4f1	-0.18727471
171	0xbc86b4de	-0.016443666
172	0x3cf7c3cc	0.03024473
173	0xbe2292fd	-0.15876384
174	0x3dd46bf1	0.10372151
175	0x3d662734	0.05618973
176	0xbe44caa8	-0.19217932
177	0x3e36c831	0.17849804
178	0xbd2d319e	-0.042283647
179	0xbd1c94ec	-0.03822796
180	0x3e1e0f2c	0.15435475
181	0x3e172afe	0.14762494
182	0xbd470251	-0.048586193
183	0xbdf43b73	-0.119254015
184	0x3ded7bff	0.11595916
185	0x3d41df05	0.04733183
186	0xbc623b35	-0.013808061
187	0xbd90f036	-0.070770666
188	0xbcb21ccb	-0.021742245
189	0x3dbc265a	0.091870025
190	0xbd4c76ea	-0.049918093
191	0x3de0419b	0.10950013
192	0x3da94d0c	0.08266649
193	0xbe27d21a	-0.16388741
194	0xbdbf5afb	-0.09343525
195	0x3e2353e9	0.15949978
196	0x3d9869d7	0.07442062
197	0xbda2b20b	-0.07944115
198	0x3e2ca289	0.16858877
199	0xbe01bfb5	-0.12670787
200	0x3e2a1089	0.1660787
201	0xbd1cc085	-0.03826954
202	0x3e15aec9	0.14617456
203	0xbd1b6e74	-0.037947133
204	0x3cca1bff	0.024671553
205	0x3e2a9ed6	0.16662154
206	0xbd35e70a	-0.04440979
207	0x3c0e4663	0.008683774
208	0x3e0bc48e	0.13649198
209	0xbe1afeb5	-0.15136226
210	0xbcce9b8d	-0.025220657
211	0xbd9fa7ba	-0.07795663
212	0xbd247a9e	-0.040156
213	0xbe06a0d6	-0.13147292
214	0xbd7bc3b6	-0.06146594
215	0x3cc92bb0	0.024556965
216	0xbdf2f551	-0.11863197
217	0xbdcf5906	-0.10124402
218	0x3e1d83e3	0.15382342
219	0x3d92d176	0.07168858
220	0xbe274737	-0.1633576
221	0xbe38a931	-0.18033291
222	0x3d31be8d	0.043394614
223	0xbdb954ad	-0.09049354
224	0x3d35597d	0.044274796
225	0xbdad7a72	-0.0847062
226	0x3e35676a	0.1771523
227	0x3d46e553	0.048558544
228	0x3df8d3c4	0.12149766
229	0x3e0b37f0	0.13595557
230	0xbd6d185c	-0.05788456
231	0xbd8910e8	-0.06692678
232	0xbd9d7016	-0.07687394
233	0x3e3029f1	0.172035
234	0x3ccb3c0d	0.024808908
235	0xbcc04d4e	-0.023474362
236	0x3e2f0555	0.17091878
237	0xbdfa9184	-0.12234786
238	0x3d7b43e8	0.061344057
239	0x3d57e99f	0.052713033
240	0xbd502dac	-0.050824806
241	0xbdb1846f	-0.08667838
242	0x3dc90ae0	0.09816527
243	0xbe038f50	-0.12847638
244	0x3dc51f2d	0.09625087
245	0xbe274606	-0.16335306
246	0x3c8a32b2	0.016869877
247	0xbce86bc5	-0.028371701
248	0x3d7aa2a8	0.061190277
249	0x3da9b321	0.08286119
250	0x3cbbc06b	0.0229189
251	0xbe458a67	-0.19291078
252	0x3e2cb423	0.16865592
253	0x3b40ebfb	0.002943753
254	0xbd511fb5	-0.05105563
255	0x3dc721a9	0.09723217

bias f4 [128]
0	0x3da5c1b5	0.08093587
1	0x3e1f34c0	0.15547466
2	0x3d866f59	0.06564207
3	0xbe2841b1	-0.1643131
4	0x3e030461	0.12794639
5	0x3d9720eb	0.073793255
6	0x3d7872be	0.0606563
7	0x3def0b09	0.11672027
8	0x3de12fc4	0.10995439
9	0x3d4cde77	0.050016847
10	0xbd39285a	-0.045204498
11	0xbd3573c7	-0.044299867
12	0xbe220541	-0.15822317
13	0xbcd96eb8	-0.026542053
14	0xbe3d6217	-0.1849445
15	0xbd8ff9c3	-0.0703006
16	0xbe1fc8c4	-0.1560393
17	0x3d4112af	0.04713696
18	0xbe373cdc	-0.1789431
19	0x3cfa75fb	0.030573836
20	0xbdb26cdc	-0.087121695
21	0x3d8e3444	0.069435626
22	0xbd42fc2a	-0.047603764
23	0xbe29dc2a	-0.16587892
24	0x3d2f935d	0.042865146
25	0x3d701c6c	0.058620855
26	0x3d47ad8a	0.048749484
27	0x3ded8edb	0.11599513
28	0xbe07a0f1	-0.13244988
29	0x3dfe6614	0.124218136
30	0xbc3f75e7	-0.011685825
31	0x3df08530	0.117441535
32	0x3e32208a	0.17395225
33	0xbd85d0e0	-0.0653398
34	0x3dd5182e	0.104050025
35	0x3ddf12ee	0.108922824
36	0xbe2d7ae7	-0.16941415
37	0xbe3a416f	-0.18189023
38	0xbdd859e8	-0.10564023
39	0x3e124cee	0.14287159
40	0xbdfc5ae6	-0.12322025
41	0x3d97663b	0.07392546
42	0x3d6ddc4c	0.05807142
43	0xbe217de8	-0.15770686
44	0x3d3ffd4f	0.046872433
45	0x3de7a24b	0.11310252
46	0xbe248d01	-0.16069414
47	0xbe0d543a	-0.13801661
48	0xbb286aab	-0.0025698345
49	0x3e0d7abd	0.13816352
50	0x3e3d0039	0.18457116
51	0xbdf57ded	-0.11986909
52	0x3e0a21e4	0.13489491
53	0xbd4494a1	-0.047993306
54	0xbe444117	-0.19165455
55	0xbca0131d	-0.019540364
56	0xbe2d827b	-0.16944306
57	0x3e15384a	0.14572254
58	0xbc3a9fed	-0.011390668
59	0xba4b6f3f	-0.00077604124
60	0xbd09d31d	-0.0336486
61	0xbe368738	-0.1782502
62	0x3d93c68f	0.072156064
63	0xbd20b4c4	-0.03923489
64	0xbd01d2f3	-0.031695317
65	0xbd6c7b5f	-0.057734843
66	0xbe1115f9	-0.14168538
67	0xbd9c9b3d	-0.07646797
68	0x3d82d528	0.063883126
69	0x3dd7e44b	0.1054159
70	0xbd33afc8	-0.04386881
71	0xbe3d45c1	-0.1848364
72	0x3e167431	0.14692761
73	0x3def4939	0.11683888
74	0xbd7b79b9	-0.06139538
75	0xbe1f2e8a	-0.15545097
76	0x3de4423c	0.11145446
77	0xbc98348d	-0.018579746
78	0xbd76d0c1	-0.060257677
79	0x3d8c40b4	0.06848279
80	0xbd149451	-0.036274258
81	0xbdc1d883	-0.094651245
82	0x3e094872	0.13406542
83	0xbd030f7f	-0.0319972
84	0x3dadb4c0	0.08481741
85	0xbe0764b2	-0.13222006
86	0x3c980ab0	0.018559784
87	0x3d5191e1	0.05116451
88	0xbdb3042a	-0.087410286
89	0x3e0354ee	0.12825367
90	0x3cd3f23a	0.025872339
91	0x3cf915bb	0.03040587
92	0xbe33c95a	-0.17557278
93	0xbe1e88be	-0.1548185
94	0xbe12e8a4	-0.14346558
95	0xbdc2b60f	-0.09507381
96	0xbd5646dc	-0.05231367
97	0x3da7795c	0.08177444
98	0xbe1e43fc	-0.15455621
99	0xbe1dfa53	-0.15427522
100	0x3e18524f	0.14875148
101	0xbe073d79	-0.13207044
102	0x3c8806e2	0.016604844
103	0xbd835f85	-0.06414703
104	0x3e1123d3	0.14173822
105	0x3cafb4c4	0.0214485
106	0x3e1ac685	0.15114792
107	0x3dd7364f	0.105084054
108	0xbd4340a0	-0.047669053
109	0xbc36cd58	-0.011157356
110	0x3e28fc6c	0.16502541
111	0x3ddef976	0.10887425
112	0x3df6bd38	0.12047809
113	0xbc1aff6e	-0.009460313
114	0x3e3ad517	0.1824535
115	0x3e1c7f00	0.15282822
116	0x3e15689f	0.14590691
117	0xbc652cab	-0.0139877
118	0xbdc3de62	-0.095639005
119	0xbddb9c86	-0.10723214
120	0xbe111dcf	-0.14171527
121	0xbe3b3f7e	-0.18285939
122	0x3d99692a	0.074907616
123	0x3e35bdff	0.17748259
124	0xbe2ea609	-0.17055525
125	0x3dcee550	0.10102332
126	0x3b2c38ea	0.002627904
127	0xbe0e4012	-0.13891628

weight f4 [128, 128]
0	0x3db62c3c	0.08895156
1	0x3c500004	0.012695316
2	0xbd71fe98	-0.05908069
3	0x3d8f658b	0.0700179
4	0xbca9368b	-0.02065589
5	0x3c0ee365	0.008721207
6	0xbceb06a5	-0.028689692
7	0xbd8ad63d	-0.06779144
8	0xbd84d7b9	-0.06486458
9	0x3d56449b	0.05231152
10	0x3d3199d3	0.04335959
11	0x3bc221ab	0.0059244237
12	0xbd40614b	-0.046967786
13	0xbd385971	-0.045007173
14	0xbd988c93	-0.074486874
15	0x3d032328	0.03201595
16	0x3db031df	0.08603262
17	0x3ba3439a	0.004982424
18	0x3d0922b0	0.033480346
19	0xbd6e42bc	-0.05816911
20	0x3d2cae24	0.04215826
21	0xbd219e7b	-0.03945778
22	0x3db17b7f	0.08666133
23	0xbd950f28	-0.072782815
24	0xbd308853	-0.04309876
25	0xbd847408	-0.06467444
26	0xbcfdbe50	-0.030974537
27	0xbb8566ec	-0.004071107
28	0xbd98f9d3	-0.07469525
29	0x3d819c14	0.06328598
30	0xbcdaa5ce	-0.02669039
31	0xbcd096d5	-0.025462547
32	0x3d2cb14f	0.042161282
33	0xbd27f87b	-0.041008454
34	0xbba83869	-0.0051336777
35	0x3d9aa29d	0.07550547
36	0xbcce973f	-0.025218604
37	0xbd927cbf	-0.071527
38	0xbd85c98e	-0.06532584
39	0x3d8ae2f9	0.06781573
40	0x3d4ef480	0.050526142
41	0x3ccfa08c	0.02534511
42	0xbc3bdc33	-0.011466074
43	0x3da0431e	0.078253016
44	0x3d9bc659	0.07606191
45	0xbd875e54	-0.066097885
46	0xbd7a6945	-0.06113555
47	0x3d5edf75	0.054412324
48	0x3c79884c	0.01523025
49	0xbd80f503	-0.06296732
50	0x3d31a46f	0.043369707
51	0x3bffbd23	0.0078045293
52	0x3c28d993	0.01030578
53	0x3db133a0	0.08652425
54	0xbd9201fe	-0.07129286
55	0xbd99338e	-0.074805364
56	0x3d1d3255	0.03837808
57	0x3d4d5aec	0.050135538
58	0x3cf08a5a	0.029362846
59	0xbd94fab5	-0.07274381
60	0xbd4de504	-0.050267234
61	0x3d50d18c	0.05098109
62	0xbd98dbaf	-0.07463776
63	0x3d333820	0.043754697
64	0x3d695898	0.056969255
65	0x3dad2f91	0.08456338
66	0xb9f95134	-0.00047553482
67	0x3db07be6	0.08617382
68	0xbd4dec5a	-0.05027423
69	0xbcd62e0e	-0.026145007
70	0x3d989f8a	0.07452305
71	0xbd7ffd20	-0.06249726
72	0xbcf7d83c	-0.030254476
73	0xbc84d74f	-0.016215948
74	0x3cac103d	0.021003837
75	0xbc54e5a5	-0.012994205
76	0xbd59e412	-0.05319602
77	0x3d9e1879	0.077195115
78	0x3d7ac121	0.06121934
79	0x3c0ef81d	0.008726147
80	0x3d5a2dc9	0.05326632
81	0x3cfe8d67	0.031073285
82	0x3d9885af	0.07447373
83	0x3d3cde93	0.0461107
84	0x3d791cee	0.060818605
85	0xbd3ef887	-0.046623733
86	0xbcbaa0cf	-0.022781758
87	0x3c434d85	0.011920338
88	0x3d2cf058	0.042221397
89	0x3d0cbf03	0.03436185
90	0xbd00ca7e	-0.03144311
91	0xbd969cc4	-0.073541194
92	0xbd71bf51	-0.059020344
93	0xbd946c04	-0.07247165
94	0xbd9ec7ff	-0.0775299
95	0x3cf00a9a	0.02930193
96	0xbd74b0cb	-0.059738915
97	0xbd4a4b20	-0.04938805
98	0xbc989188	-0.018624082
99	0xbda3073e	-0.07960366
100	0x3d3ef00d	0.04661565
101	0xbd3cea06	-0.04612162
102	0xbb39104f	-0.002823848
103	0xbd278435	-0.040897567
104	0x3d6758a4	0.05648102
105	0xbc8466d1	-0.016162308
106	0xbd92ecce	-0.07174073
107	0x3dae2d73	0.085047625
108	0xbd764aed	-0.06013005
109	0xbceb0676	-0.028689604
110	0xbd314a58	-0.04328379
111	0xbd207e10	-0.039182723
112	0x3dae993c	0.08525321
113	0x3d242eca	0.040083684
114	0xbd12fa3c	-0.035883173
115	0x3d569a33	0.05239315
116	0xbd73c30c	-0.059512183
117	0x3d87037f	0.06592464
118	0x3d18c9a0	0.03730166
119	0x3d8de0f9	0.06927676
120	0x3c8224bf	0.015886663
121	0xbb0d3511	-0.0021546523
122	0x3d181845	0.03713252
123	0xbd8b63ea	-0.068061665
124	0xbd3d3ff8	-0.046203583
125	0x3d37544b	0.044758122
126	0x3cdf23bb	0.027238717
127	0xbd19dae1	-0.037562255
128	0x3d5e336c	0.05424826
129	0xbd0621dc	-0.032747135
130	0x3d65db09	0.05611709
131	0x3d8809b3	0.06642475
132	0xbb3649b8	-0.0027814936
133	0xbd7debc9	-0.06199244
134	0xbd20fa4d	-0.039301205
135	0xbc1d8318	-0.009613775
136	0xbd839ded	-0.06426606
137	0xbd88b521	-0.066751726
138	0xbc09fb07	-0.008421666
139	0x3bff8786	0.007798138
140	0x3d44b799	0.048026655
141	0xbd719f51	-0.058989827
142	0xbda522d9	-0.08063287
143	0xbbdd04c5	-0.0067449533
144	0xbb82e55e	-0.003994628
145	0x3c37d785	0.011220817
146	0xbce28559	-0.027651476
147	0xbd70b803	-0.058769237
148	0xbd3f7a80	-0.046747684
149	0xbdbb6c82	-0.091515556
150	0x3cdaa832	0.02669153
151	0xbd6e68e4	-0.0582055
152	0xbcd80c88	-0.026373163
153	0x3d3a56c4	0.045492902
154	0xbd4c366e	-0.049856596
155	0x3cac6fdb	0.02104943
156	0xbcc5fdfd	-0.024168963
157	0x3cd3a303	0.025834566
158	0xbd7e7f09	-0.06213287
159	0x3d811808	0.06303412
160	0xbcb505bf	-0.022097467
161	0xbd81535c	-0.06314728
162	0xbd8c8584	-0.068614036
163	0x3d962ed2	0.07333149
164	0xbda7a13d	-0.08185051
165	0xbd0a9f7c	-0.033843502
166	0x3d298001	0.04138184
167	0xbdbfb8e9	-0.09361441
168	0xbcf5354c	-0.02993264
169	0x3a57e546	0.00082357635
170	0xbc88bd12	-0.016691718
171	0x3c9fb391	0.019494804
172	0x3d9a026e	0.07519995
173	0xbd77780e	-0.060417227
174	0xbd85409f	-0.06506466
175	0x3da217b5	0.07914678
176	0x3cf3f87c	0.029781573
177	0x3d6da449	0.058018003
178	0xbdb03efd	-0.08605764
179	0x3c50379f	0.012708574
180	0x3cb92ada	0.022603441
181	0x3d0ce011	0.034393374
182	0xbd7516fb	-0.05983637
183	0xbc570d81	-0.013125778
184	0xbdaec951	-0.08534492
185	0xbda20eaa	-0.07912953
186	0xbd715d5d	-0.05892693
187	0xbc5c7955	-0.013456662
188	0xbd78563d	-0.06062912
189	0x3d44f731	0.048087303
190	0x3b73fc20	0.0037229136
191	0xbc865691	-0.0163987
192	0xbd9be2ca	-0.07611616
193	0xbc9e0ba8	-0.019292668
194	0xbcc12e67	-0.023581697
195	0xbd8a874e	-0.067640886
196	0x3c03dd1b	0.008048321
197	0xbd0c937f	-0.03432035
198	0xbc467dfa	-0.012114996
199	0xbd6abbf6	-0.05730816
200	0x3d3cdd0e	0.04610925
201	0x3d067b45	0.032832403
202	0xbc137d05	-0.009001975
203	0x3d58883e	0.052864306
204	0xbb021589	-0.0019849262
205	0xbca48954	-0.020085014
206	0x3bf1d5a8	0.007380206
207	0xbd5ec15a	-0.054383613
208	0xbd50082a	-0.050789036
209	0xbd0003e5	-0.031253714
210	0x3db12fa3	0.08651664
211	0x3caf1cd0	0.021376044
212	0xbc84614f	-0.016159682
213	0xbdc15621	-0.09440256
214	0x3d7c02b7	0.061526027
215	0xbd1ff9d7	-0.039056625
216	0xbd7db5cd	-0.061940957
217	0xbda1f1d0	-0.0790745
218	0xbd847b3c	-0.064688176
219	0x3db25fac	0.08709654
220	0x3d7e9384	0.0621524
221	0x3d4c3cd4	0.049862698
222	0xbdb82fd8	-0.089935005
223	0xbd5436f3	-0.051810216
224	0x3c8337e3	0.01601786
225	0x3c601f92	0.013679402
226	0xbceea573	-0.029131627
227	0xbd9b9b92	-0.07598032
228	0x3d86ffb1	0.06591738
229	0xbd73a994	-0.059487894
230	0xbd7d3d12	-0.06182582
231	0xbdab04a9	-0.08350498
232	0xbd53df2e	-0.051726513
233	0xbd1794ea	-0.03700725
234	0xbda57eaf	-0.080808036
235	0x3d9b5b2b	0.07585748
236	0xbd9545cf	-0.072887056
237	0xbd2dc58e	-0.04242473
238	0xbc9d4207	-0.019196523
239	0xbc804b20	-0.015660822
240	0xbd638174	-0.055543378
241	0x3cb92e66	0.022605132
242	0x3b21c26d	0.0024682537
243	0x3d0fcc57	0.035106983
244	0xbb18bd39	-0.0023306145
245	0xbc48909c	-0.012241509
246	0x3d85994d	0.065233804
247	0xbdba4985	-0.09096054
248	0xbd5669c4	-0.05234696
249	0xbcd3877f	-0.025821446
250	0x3cf98b58	0.030461952
251	0x3d59103d	0.052994
252	0x3d2f92a9	0.042864475
253	0x3c4814d9	0.012212002
254	0xbcdaad38	-0.026693925
255	0xbbd951db	-0.0066320724

bias f4 [128]
0	0xbcae795a	-0.0212981
1	0xbbd5bb83	-0.0065225973
2	0x3d220b0b	0.039561313
3	0xbcae32a5	-0.021264384
4	0x3d515c1a	0.051113226
5	0xbd77bf87	-0.06048539
6	0xbd943f3d	-0.07238624
7	0xbd5dc1d7	-0.05413994
8	0x3caf5b3b	0.021405807
9	0x3d5f06d4	0.05444987
10	0xbdb4e8a6	-0.08833437
11	0x3c08c480	0.0083476305
12	0x3ce0082f	0.027347652
13	0xbce17fbd	-0.02752673
14	0x3d8e3964	0.0694454
15	0xbd1559c8	-0.036462575
16	0xbd8f2162	-0.06988789
17	0x3d9389d4	0.07204023
18	0x3d2ecb3e	0.042674296
19	0x3d7d8328	0.06189266
20	0x3cf4dc5e	0.029890236
21	0x3c888f24	0.016669817
22	0xbd424802	-0.047431953
23	0x3d71bade	0.0590161
24	0x3d55a886	0.05216267
25	0x3d86013d	0.06543205
26	0xbd840e44	-0.064480335
27	0x3cdfebed	0.027334178
28	0x3d80ca34	0.06288567
29	0xbdb00698	-0.08595008
30	0xbc4d5514	-0.012532491
31	0x3d605d6c	0.054776594
32	0x3d84f69c	0.064923495
33	0xbda4005b	-0.0800788
34	0x3d4cf096	0.050034128
35	0xbdb2c0a2	-0.08728148
36	0xbd58f5a3	-0.052968632
37	0x3d5aa1c0	0.053376913
38	0xbd93ae60	-0.07210994
39	0xbd9ffd1d	-0.078119494
40	0xbccedbbb	-0.02525126
41	0xbb49e2bc	-0.003080531
42	0x3bc1ebb6	0.0059179915
43	0xbd43318d	-0.047654677
44	0x3cd6e6aa	0.026233036
45	0x3cd9807d	0.026550526
46	0x3d72621c	0.059175596
47	0xbd60d61b	-0.054891687
48	0x3d96a456	0.07355563
49	0xbc6259a6	-0.013815319
50	0xbd7732ea	-0.06035129
51	0xbda534e8	-0.08066732
52	0x3dae8e1a	0.085231975
53	0xbc2767fe	-0.010217665
54	0x3a381e1d	0.000702353
55	0xbcc9b8cb	-0.024624249
56	0x3cad396a	0.021145541
57	0x3d554ada	0.052073337
58	0x3d086dde	0.033307903
59	0xbd872e41	-0.06600619
60	0x3d9b66d0	0.07587969
61	0xbcc2e9e4	-0.023793168
62	0x3d005dbe	0.0313394
63	0x3d54a3ba	0.051913954
64	0xbd4d6792	-0.0501476
65	0x3d8c8031	0.06860388
66	0xbd91f848	-0.07127434
67	0xbd718ee2	-0.058974154
68	0xbd53fe20	-0.051756024
69	0xbd2661a5	-0.040620465
70	0x3d1d791a	0.03844557
71	0xbb4aabb9	-0.0030925109
72	0x3da2f2c8	0.07956463
73	0xbd44b439	-0.048023436
74	0x3cc00ad6	0.023442667
75	0x3c890ba2	0.01672918
76	0x3d99a486	0.075020835
77	0xbcc432a6	-0.023949932
78	0x3d63c417	0.055606928
79	0x3d9cdbce	0.07659112
80	0x3ca9bfdb	0.020721367
81	0x3d3d2a9f	0.046183225
82	0x3da0b476	0.0784692
83	0xbcedb3e8	-0.02901645
84	0x3d968d29	0.07351143
85	0x3d5ed6dc	0.054404125
86	0xbc8a9815	-0.016918221
87	0x3d87fc1f	0.06639885
88	0xbd85961e	-0.06522773
89	0xbd4af891	-0.049553458
90	0xbd2e0271	-0.042482797
91	0xbc889072	-0.01667044
92	0x3d3f529c	0.04670964
93	0x3ce19bf0	0.027540177
94	0xbd86da43	-0.06584599
95	0xbce00e31	-0.027350517
96	0xbd9f9841	-0.07792712
97	0x3d020be2	0.031749614
98	0xbda5530b	-0.0807248
99	0x3b35adaa	0.002772192
100	0xbd827e05	-0.063716926
101	0xbd85cc90	-0.06533158
102	0x3d4a5cd0	0.04940492
103	0x3d97c54b	0.074106775
104	0x3da67d69	0.08129389
105	0xbd9fd71c	-0.07804701
106	0x3ccc308d	0.024925495
107	0xbcc8d920	-0.024517596
108	0x3db2f1f2	0.08737554
109	0x3d7f8091	0.06237847
110	0xbc9ead9a	-0.019369889
111	0xbcb279ad	-0.021786535
112	0x3d907722	0.07053973
113	0xbafb7d39	-0.00191871
114	0x3d71804b	0.05896024
115	0xbc215ac2	-0.0098482985
116	0xbc71ec93	-0.014765876
117	0xbc92c5a5	-0.01791651
118	0x3cfccd9a	0.030859757
119	0xbc8e6b6d	-0.017385209
120	0xbd269f93	-0.040679526
121	0xbda9e159	-0.08294935
122	0x3cb340c2	0.021881465
123	0x3d23705a	0.03990207
124	0x3c79ae7b	0.015239353
125	0x3cc58673	0.024111962
126	0x3cb0ff10	0.021605998
127	0x3c303bc9	0.010756441

weight f4 [4, 128]
0	0x3c914866	0.017734718
1	0xbcb20fc0	-0.021736026
2	0x3d31065c	0.043218955
3	0xbcddb63a	-0.027064431
4	0x3daf5e76	0.08562939
5	0x3d0f6993	0.035012793
6	0xbd8bad84	-0.06820205
7	0x3d85611e	0.06512664
8	0x3d69b955	0.057061512
9	0xbc9fb469	-0.019495206
10	0x3d6e9667	0.058248904
11	0x3d5dd3fd	0.054157246
12	0xbd96539c	-0.07340166
13	0x3b65fba9	0.0035092628
14	0xbceb92c2	-0.028756503
15	0xbb7181c2	-0.0036851023
16	0x3d07a201	0.033113483
17	0x3d8b4661	0.06800533
18	0xbd8bba05	-0.0682259
19	0xbd459eba	-0.048247077
20	0x3d5e8b15	0.054331858
21	0xbd50da5d	-0.050989497
22	0x3cc2d7c1	0.02378452
23	0x3cc08b6e	0.023503985
24	0x3d4216c3	0.04738499
25	0xbd8349ff	-0.06410598
26	0x3d9b3ef1	0.075803645
27	0xbd5153bb	-0.051105242
28	0x3d5136f8	0.051077813
29	0xbc65bcff	-0.014022111
30	0xbce943a8	-0.028474644
31	0x3d186cac	0.037213013
32	0xbd8338ac	-0.06407294
33	0xbda3d93d	-0.08000419
34	0x3d789163	0.060685527
35	0xbd46a606	-0.048498176
36	0xbd8b8c3e	-0.068138584
37	0xbd832fd8	-0.0640561
38	0x3ccb94ce	0.024851229
39	0xbd95246d	-0.07282338
40	0xbccd1d60	-0.025038421
41	0x3d7cd877	0.061729874
42	0xbb9a9b40	-0.0047182143
43	0x3d4dffd7	0.050292816
44	0x3d47eb2d	0.048808265
45	0x3d14fdbf	0.036374804
46	0xbd7a61a7	-0.061128285
47	0xbda04d47	-0.078272395
48	0xbd622e74	-0.055220082
49	0x3ba29579	0.004961666
50	0x3d75a57a	0.059972264
51	0xbd9fe21e	-0.078068
52	0xbd935130	-0.0719322
53	0x3d55128e	0.05201965
54	0x3c0c12dc	0.008549418
55	0x3d904f3c	0.07046363
56	0x3d807541	0.062723644
57	0x3d7dddc2	0.061979063
58	0x3d0591c2	0.03260971
59	0xbd1b7e5f	-0.037962314
60	0x3cb7cf63	0.022437757
61	0x3d8288a3	0.06373718
62	0xbda089e7	-0.07838803
63	0x3d85e9a3	0.06538703
64	0x3d62effe	0.055404656
65	0x3d490a32	0.04908199
66	0xbce0ce29	-0.027442055
67	0xbd48c580	-0.049016476
68	0xbd93847d	-0.072030045
69	0x3da0d2ff	0.07852744
70	0xbd7daae5	-0.061930556
71	0x3da139d5	0.07872359
72	0x3da838a1	0.08213926
73	0x3db236a2	0.08701827
74	0x3cb4de9f	0.02207881
75	0xbd02b0a3	-0.031906735
76	0xbc157b9a	-0.009123707
77	0x3ce6c715	0.028171102
78	0x3cb81681	0.022471668
79	0xbd882cf9	-0.06649203
80	0xbd97d4cc	-0.07413635
81	0x3ceee0aa	0.029159863
82	0x3bae64bc	0.005322067
83	0xbd80e1ad	-0.06293044
84	0x3d7df9b7	0.062005725
85	0x3ccbce76	0.024878722
86	0x3d604faf	0.054763492
87	0x3c36d05c	0.011158075
88	0x3d22fd0b	0.0397921
89	0x3da40489	0.080086775
90	0xbdacbd90	-0.08434594
91	0x3d9154d3	0.07096257
92	0xbd121c30	-0.035671413
93	0x3d475b11	0.048670832
94	0x3d4158fb	0.047204
95	0x3d83b4ca	0.06430967
96	0x3da399fa	0.07988353
97	0xbc4d3302	-0.012524368
98	0x3d5c32df	0.053759452
99	0x3cfe887f	0.031070946
100	0x3d2bc4fe	0.041935913
101	0xbd258219	-0.040407274
102	0xbd5b0003	-0.053466808
103	0x3c3670d0	0.011135295
104	0xbd164296	-0.036684595
105	0xbd0de8c1	-0.0346458
106	0x3d094ea9	0.03352228
107	0x3d2e7ba5	0.042598385
108	0xbd1b651d	-0.037938226
109	0xbd8e2522	-0.06940676
110	0xbbdb3fa8	-0.006690938
111	0x3d36d910	0.0446406
112	0x3d896591	0.067088254
113	0x3d5e560a	0.054281272
114	0xbdb59038	-0.08865398
115	0xbcef3669	-0.02920075
116	0x3d98845b	0.0744712
117	0xbbb8433c	-0.0056232493
118	0xbdab37d2	-0.08360256
119	0x3da2c6f2	0.07948102
120	0xbd437b1a	-0.04772482
121	0x3c8492b3	0.016183233
122	0x3d48bdb2	0.049009033
123	0xbd89e613	-0.06733336
124	0x3c64cc77	0.013964764
125	0x3d817c3b	0.06322523
126	0xbd6688d8	-0.056282848
127	0xbcb5ca2f	-0.022191135
128	0xbb866a71	-0.0041020443
129	0xbd54e132	-0.051972575
130	0x3d63156f	0.055440363
131	0xbcbd761f	-0.023127614
132	0x3c7711c2	0.015079917
133	0xbd9edfd0	-0.077575326
134	0xbd5f48cd	-0.054512788
135	0x3d78f724	0.060782567
136	0xbd424e7d	-0.047438134
137	0xbc82a265	-0.015946576
138	0x3cb5e5cf	0.022204308
139	0xbd32aa3f	-0.04361939
140	0x3da24f8c	0.079253286
141	0x3d32fe3a	0.04369948
142	0xbd8d018f	-0.06885063
143	0x3d925771	0.071455844
144	0xbd98ace0	-0.07454848
145	0x3d775adf	0.060389396
146	0x3cac37ac	0.02102264
147	0xbd8668a3	-0.065629266
148	0xbd0c7688	-0.034292728
149	0x3d834da9	0.06411297
150	0x3dbd1870	0.09233177
151	0x3d059837	0.032615867
152	0xbdad3162	-0.08456685
153	0xbd6d7a28	-0.057977825
154	0xbd91f098	-0.07125968
155	0xbcc1e98c	-0.023670934
156	0xbd84829c	-0.06470224
157	0x3d753249	0.05986241
158	0x3ce9f433	0.028558826
159	0x3d938d60	0.072046995
160	0xbbe99788	-0.0071286596
161	0x3bf2183b	0.0073881424
162	0xbd9a8deb	-0.075466
163	0x3da8c918	0.082414806
164	0xbd284b4d	-0.041087437
165	0xbb92f818	-0.0044851415
166	0xbc1185d0	-0.008882001
167	0x3d34c050	0.044128716
168	0x3c4df6df	0.012571066
169	0xbd38e26a	-0.0451378
170	0x3c8ec162	0.017426196
171	0x3cd0186b	0.025402268
172	0xbdb493e2	-0.08817269
173	0xbd70b158	-0.05876288
174	0xbb0e20d2	-0.0021687043
175	0x3d2fea1e	0.04294788
176	0x3c9a5470	0.018839091
177	0x3d8f0937	0.069841795
178	0xbdb3e511	-0.08783925
179	0xbcafdc97	-0.02146749
180	0x3cd74f1d	0.026282841
181	0x3ced9828	0.029003218
182	0x3db07ce9	0.08617575
183	0xbd8e4bbb	-0.06948038
184	0x3cb9dfaa	0.02268966
185	0xbd58ab3e	-0.052897684
186	0xbcf834b7	-0.030298574
187	0xbd2beade	-0.041972034
188	0xbce68e75	-0.0281441
189	0xbdadd416	-0.08487718
190	0xbd1d4852	-0.03839905
191	0xbcf7e087	-0.03025843
192	0xbda64867	-0.081192784
193	0x3da541e6	0.0806921
194	0x3d8a1641	0.06742526
195	0xbd5f624a	-0.054537095
196	0x3bc1cfcb	0.0059146634
197	0x3cdb8f23	0.026801651
198	0xbd1541bf	-0.036439653
199	0x3c152ef2	0.009105431
200	0xbd4d7511	-0.05016047
201	0xbd4763d4	-0.048679188
202	0x3da4b611	0.08042539
203	0x3daa44ed	0.08313928
204	0xbd65fc83	-0.056149017
205	0xbc919050	-0.017769009
206	0x3da5e3da	0.081001
207	0x3da22d7c	0.07918832
208	0xbd4ed3ac	-0.050494835
209	0xbda49841	-0.08036853
210	0xbce838e0	-0.028347433
211	0x3d943176	0.072359964
212	0xbba41ec9	-0.0050085527
213	0xbd3df434	-0.04637547
214	0x3d22cc1e	0.039745443
215	0xbd81609d	-0.06317256
216	0x3be16e8c	0.0068796333
217	0x3d69bacd	0.057062913
218	0x3d7ba323	0.061434876
219	0xbd737fbe	-0.059447996
220	0xbbb23e60	-0.0054395646
221	0x3d82279a	0.0635521
222	0x3c5bde0d	0.01341964
223	0xbd9a7caa	-0.07543309
224	0xbd8680b5	-0.06567518
225	0xbd945bef	-0.072440974
226	0xbd5659b2	-0.052331634
227	0x3d83cbd0	0.064353585
228	0x3d24edc4	0.040265813
229	0x3d565237	0.0523245
230	0x39d3b7c5	0.00040381975
231	0x3d5e8c8c	0.054333255
232	0x3ceaf9a5	0.028683493
233	0xbd42aac6	-0.047526143
234	0x3d863e6e	0.06554876
235	0xbbbc423c	-0.0057452004
236	0x3d61dc4e	0.05514174
237	0xbbe1d4f2	-0.00689184
238	0xbdaba1f6	-0.08380501
239	0xbd0bbe6a	-0.03411714
240	0xbd65953f	-0.056050535
241	0x3d38deb9	0.04513428
242	0xbd0f7d7c	-0.03503178
243	0xbd57c547	-0.052678373
244	0xbd6b874b	-0.057502072
245	0x3c8dfc15	0.017332116
246	0xbccec314	-0.025239505
247	0x3d502cd7	0.050824013
248	0xbd5fef3a	-0.054671504
249	0x3d919123	0.07107761
250	0xbd8130ad	-0.06308112
251	0x3caac7bc	0.020847194
252	0x3d23482c	0.03986375
253	0x3d1b41ab	0.037904423
254	0xbd913d2d	-0.070917465
255	0xbd1d62c9	-0.038424287

bias f4 [4]
0	0x3daad500	0.08341408
1	0x3d51ba4b	0.051203053
2	0xbccc10bd	-0.024910325
3	0xbc98b4d3	-0.018640911
